signal_quality/examples/denoising_models/cnn.pt (torch, 953404 bytes, 25 tensors)

layers.0.weight f4 [256, 6, 5]
-0.008848331 -0.008594812 -0.00810197 -0.008032199 -0.007975905 0.02372907 0.024724375 0.02541591
0.025781281 0.02582523 -0.0070608715 -0.007757975 -0.008207549 -0.008265948 -0.007863215 -0.0005686191
-0.0011331823 -0.002201 -0.0032018707 -0.0036554195 0.0014788897 0.0014562368 0.00090227014 0.00023946373
9.175837e-05 -0.008960422 -0.011117125 -0.011933758 -0.013650029 -0.014844764 1.3344871e-08 1.3638849e-08
1.3828507e-08 1.3875029e-08 1.36280125e-08 4.458185e-09 4.5640465e-09 4.5441304e-09 4.3991006e-09 4.130386e-09
6.587428e-10 4.3324305e-10 -3.8838238e-11 -6.826539e-10 -1.4298968e-09 -3.719737e-09 -3.1040204e-09 -2.221375e-09
-1.0879445e-09 1.459056e-10 -8.367476e-11 -1.0831708e-09 -1.6070268e-09 -1.7929211e-09 -2.1026862e-09 7.489169e-09
6.5857617e-09 6.1325864e-09 5.758832e-09 5.981391e-09 9.183225e-06 8.119889e-06 7.3284646e-06 6.8447816e-06
6.5726904e-06 -1.9827425e-08 -1.3627175e-08 -7.144749e-09 -6.199542e-10 5.955194e-09 4.1459293e-12 5.2546696e-09
1.1091275e-08 1.6833221e-08 2.16566e-08 -1.6575233e-09 4.139423e-09 1.1243822e-08 1.922898e-08 2.639246e-08
1.5103376e-09 -3.140475e-09 -4.2451074e-09 -2.0974957e-09 3.151574e-09 9.041367e-09 3.739483e-09 1.9855162e-09
-1.0348236e-09 3.1730427e-10 0.009579931 0.006316811 0.0035322062 0.0012935069 -0.00021796896 -0.013136252
-0.013506606 -0.013771746 -0.0139394775 -0.014068958 0.005396925 0.0062026763 0.0064423997 0.006066533
0.005209417 -0.00038917348 -0.00029862666 -0.00017892921 -0.00016204984 -0.00018985613 -7.5445014e-06 0.00016655446
0.00026319083 0.00015040673 -5.7440422e-05 0.00073585636 0.0014409145 0.0020472817 0.0016663474 0.0008950017
-0.004381834 -0.0041573774 -0.0040308735 -0.0040279366 -0.004090942 -0.0006443102 -0.00062453566 -0.0005672534
-0.0004744637 -0.00035009376 -0.00081477413 -0.00075696246 -0.00067096646 -0.00055840285 -0.00041564024 -3.8939626e-05
1.8543898e-05 0.00010652526 0.00019697938 0.00024749778 0.00012234307 0.00018302159 0.000232759 0.00017470484
7.145156e-05 0.000321544 0.00024195532 0.00012428637 7.151367e-05 7.424196e-05 1.2802269e-06 1.2621323e-06
1.2253598e-06 1.167575e-06 1.1110113e-06 -1.40695e-07 -7.837099e-08 -1.5909436e-08 4.471931e-08 1.02081565e-07
8.161543e-08 1.13486145e-08 -6.108101e-08 -1.3636605e-07 -2.1411451e-07 4.5144287e-07 4.334156e-07 3.98924e-07
3.7335363e-07 3.757326e-07 1.615623e-07 1.3138835e-07 1.749621e-07 2.40855e-07 2.9300932e-07 5.0930885e-07
4.8465813e-07 4.820705e-07 5.1297354e-07 5.613983e-07 1.8494467e-05 8.009325e-06 3.2029127e-06 1.2951201e-06
6.088122e-07 4.2997584e-08 4.5646058e-08 7.861201e-08 1.7343298e-07 3.88862e-07 -6.958824e-11 -5.7413966e-11
-3.2789587e-11 3.8058313e-11 1.0174832e-10 -7.600096e-11 -6.952916e-11 -5.58512e-11 -2.7377213e-11 8.4325385e-12
1.7868285e-11 1.3178091e-12 -3.162624e-11 -6.138845e-11 -6.614972e-11 -2.8600483e-10 -6.246742e-10 -1.6437355e-09
-2.7228204e-09 -3.467049e-09 0.00040236017 -1.1386313e-05 -8.425305e-05 1.3303609e-05 0.0004024884 0.0014072792
0.001281853 0.0011143205 0.00091674837 0.0007022165 -0.0007258971 -0.0004573461 -0.00017647774 -3.6106852e-05
-7.878612e-06 -9.492409e-08 -8.488308e-07 -1.1234945e-06 -8.1473064e-07 -6.2434816e-07 1.4570702e-06 1.2816758e-06
1.0517047e-06 1.1175864e-06 1.5714604e-06 -0.00090419286 -0.00080959994 -0.0005638089 -0.00030609316 -0.0002378044
0.001273399 0.0006430965 -0.00038943827 -0.0016200613 -0.0028503446 -0.005399851 -0.0053578625 -0.005213812
-0.0049833506 -0.004671443 -0.00065003557 -0.0007056969 -0.0007215971 -0.0006799151 -0.0005722741 0.00014718832
00000000: 97f8 10bc 41d1 0cbc 20be 04bc 7c99 03bc
00000010: 5fad 02bc 7763 c23c c68a ca3c 0735 d03c
00000020: 4433 d33c 6f8f d33c e25e e7bb 9c36 febb
00000030: f578 06bc e66d 07bc b7d4 00bc 620f 15ba
00000040: 4a87 94ba a73e 10bb 7ad6 51bb c38f 6fbb
00000050: 4ed7 c13a 33df be3a 5386 6c3a 8e18 7b39
00000060: 666e c038 bcce 12bc 9a24 36bc cf85 43bc
00000070: 5fa4 5fbc 7437 73bc 5d43 6532 4b50 6a32
00000080: 6b92 6d32 065f 6e32 a220 6a32 9c2e 9931
00000090: c7d1 9c31 9822 9c31 e626 9731 42eb 8d31
000000a0: e712 3530 8a2d ee2f f8cf 2aae 7fa5 3bb0
000000b0: 0586 c4b0 4e9e 7fb1 814e 55b1 d8a6 18b1
000000c0: a586 95b0 c66c 202f b400 b8ae afde 94b0
000000d0: 3bde dcb0 ce6a f6b0 d97e 10b1 b7a9 0032
000000e0: f948 e231 cdb6 d231 39df c531 df84 cd31
000000f0: a711 1a37 a83a 0837 08e7 f536 3aac e536
00000100: fb8a dc36 f850 aab2 f31c 6ab2 e07d f5b1
00000110: 6669 2ab0 719e cc31 36df 912c 908c b431
00000120: f18b 3e32 a598 9032 5e07 ba32 ebce e3b0
00000130: c03a 8e31 da2a 4132 f92c a532 a2b5 e232
00000140: 4894 cf30 d2cf 57b1 5cdc 91b1 8923 10b1
00000150: 1393 5831 5a54 1b32 d77c 8031 9271 0831
00000160: 9e39 8eb0 9b70 ae2f 25f5 1c3c 40fd ce3b
00000170: 967c 673b e48a a93a 998e 64b9 6f39 57bc
00000180: d04a 5dbc e4a2 61bc 6862 64bc 7d81 66bc
00000190: b0d8 b03b d23f cb3b c41a d33b c4c9 c63b
000001a0: c2b3 aa3b fb09 ccb9 fe90 9cb9 f29e 3bb9
000001b0: eceb 29b9 1e14 47b9 c626 fdb6 1fa5 2e39
000001c0: e0fc 8939 80b6 1d39 2fec 70b8 7ce6 403a
000001d0: 11dd bc3a b02b 063b 5769 da3a 8c9e 6a3a
000001e0: 7d95 8fbb 9c3a 88bb 6b15 84bb c8fc 83bb
000001f0: 4f0d 86bb ede6 28ba e1b7 23ba bbb3 14ba
00000200: 71c1 f8b9 ca8c b7b9 9196 55ba e46e 46ba
00000210: cce3 2fba c861 12ba 4aea d9b9 1b53 23b8
00000220: b88e 9b37 5066 df38 408c 4e39 97c2 8139
00000230: 3849 0039 7ce9 3f39 c510 7439 f930 3739
00000240: 44d8 9538 e894 a839 63b5 7d39 de52 0239
00000250: 9cf9 9538 59b2 9b38 43d4 ab35 8966 a935
00000260: 0b77 a435 92b5 9c35 0f1e 9535 f211 17b4
00000270: e84c a8b3 38a9 88b2 6711 4033 ef37 db33
00000280: 8f44 af33 bcf7 4232 a42b 83b3 046c 12b4
00000290: 59e7 65b4 d65d f234 30b0 e834 b22b d634
000002a0: 5571 c834 4cb8 c934 e879 2d34 c113 0d34
000002b0: 37dd 3b34 dc4e 8134 e54e 9d34 70b7 0835
000002c0: 7419 0235 a267 0135 46b3 0935 ffb2 1635
000002d0: 9124 9b37 ca5f 0637 9ff1 5636 fdd3 ad35
000002e0: 416d 2335 58ac 3833 5f0c 4433 69d1 a833
000002f0: e538 3a34 c9c4 d034 b206 99ae 6182 7cae
00000300: cb35 10ae da61 272e 36bf df2e bd20 a7ae
00000310: 70e5 98ae dca2 75ae 01d0 f0ad c758 142d
00000320: cd2b 9d2d 1477 b92b fb17 0bae a0fe 86ae
00000330: fb76 91ae 9a3b 9daf 8ab5 2bb0 cde9 e1b0
00000340: 5d1c 3bb1 f940 6eb1 def3 d239 d807 3fb7
00000350: 03b1 b0b8 9132 5f37 1405 d339 7474 b83a
00000360: d903 a83a 640e 923a f151 703a f414 383a
00000370: 214a 3eba f4c7 efb9 e20c 39b9 7071 17b8
00000380: 622e 04b7 12d9 cbb3 35db 63b5 faca 96b5
00000390: ddb3 5ab5 e198 27b5 8d90 c335 0c06 ac35
000003a0: 4c28 8d35 faff 9535 f8ea d235 5b07 6dba
000003b0: 553b 54ba 93cc 13ba 217b a0b9 225b 79b9
000003c0: 2ee8 a63a 7a95 283a 852d ccb9 3d58 d4ba
000003d0: d9cc 3abb 3cf1 b0bb 0291 afbb a0d8 aabb
000003e0: 604b a3bb e712 99bb 2667 2aba 84fe 38ba
000003f0: 9029 3dba 543c 32ba aa04 16ba 9056 1a39

layers.0.bias f4 [256]
-0.03516913 -4.2367571e-07 -1.9188417e-06 0.025480062 0.00089552917 -5.445566e-07 -2.375406e-05 -0.02656549
0.007966468 0.0077484227 -0.024281705 0.030563748 -1.8186221e-06 -6.964552e-07 -0.0010281856 0.044536214
-6.347927e-06 0.014184974 6.9622133e-06 -9.24165e-06 -0.03038208 -1.2697335e-06 -0.005873364 0.0011006364
0.01006852 -1.0844374e-05 -6.2834747e-06 -4.2914085e-05 -0.005778872 -0.007581489 -0.13492666 -0.026857756
4.974831e-05 -6.5014516e-05 -0.00040208688 -0.027035221 0.0026363668 -0.00071494165 -0.017317094 0.031748425
-0.0030450893 0.000106696316 -1.6039121e-06 -0.05914404 -0.0007779434 -0.01134134 -0.0006805612 -1.886421e-07
7.990542e-06 -2.6289665e-05 2.0009955e-08 -2.6433284e-09 -7.2182306e-06 -0.009768693 -0.019431876 -0.035447855
-0.0054005226 0.008990263 -4.013393e-06 -1.6826072e-05 -0.0005206583 -0.00028137033 -1.4337155e-05 -0.0018237128
0.00051879353 9.994276e-05 0.000777001 -0.010123797 -0.015792854 0.00011170799 -0.0008875291 0.00081199425
-3.6069392e-05 -0.02991392 -0.085492775 -1.3666917e-05 -0.00030629174 -0.00015308712 0.029754331 3.1597017e-05
-0.002560219 -0.007863078 -8.761621e-05 -0.027766982 -0.0020883488 3.0443343e-06 0.021510843 -2.713985e-07
-9.0400405e-05 0.00017333559 -1.610226e-06 -0.000113456386 -1.3683243e-06 -7.4219474e-06 -2.9457737e-05 -0.0001112738
1.289959e-09 -2.0436935e-05 -0.07451169 -0.0011537219 2.0804653e-05 -4.678127e-05 -3.123793e-05 -0.014518107
-0.0051927012 -2.0140376e-05 0.052541196 -6.373479e-06 -0.00078534667 -0.016618073 -0.0031935612 1.9756865e-06
-0.018410217 -0.0015228521 -9.72864e-05 0.01847903 -0.0030772074 -0.0049687047 0.00843174 0.011349835
-9.22231e-09 -0.00080055016 -0.02663828 -0.045699216 -0.0018908788 -0.0062434394 0.0031979382 0.0037003364
-0.0003157702 0.0048331595 8.8979694e-05 -1.163457e-06 -2.5785695e-08 -0.004129099 -0.018675549 -0.0010059404
-0.0092574945 0.0029745603 0.044041347 -1.2194355e-06 -0.03215664 -0.00036350146 -0.00043592375 -1.063569e-06
0.0040756124 -0.0048865713 -0.0021857405 -0.0010960331 0.00019754839 0.0036147516 -0.0065250657 -0.007891736
-0.00017531546 -4.5595502e-07 0.00025585908 6.9973116e-06 0.0005416511 -0.020427212 -0.01698298 1.3663895e-05
-0.0031855777 -0.06872121 5.3271662e-05 -0.0046965126 0.054048378 -0.00019020702 -0.00036607278 6.181858e-08
-0.0035918204 -0.0043132636 -1.3308412e-05 0.0066884584 -2.6899443e-07 -1.2528806e-06 -0.009561367 -0.0054192836
-6.570167e-11 -0.0004848314 -0.0077677295 -0.033378277 -2.5780657e-06 -5.246196e-05 -0.00066527975 -0.00024425273
-0.01256011 -2.9380035e-05 -0.002567585 -0.0030128662 -0.017290402 -0.010394224 -2.9740076e-07 0.05213821
-7.146323e-05 -1.4340105e-06 -9.6566815e-08 -0.042314686 -0.00012663237 -0.00035922276 0.004788121 -0.00039504704
0.2096679 -0.049455382 0.0007615123 0.003712611 -0.00074081187 -0.00093607925 0.0026301432 0.021421159
-0.009159515 0.015207697 -4.5493172e-05 -4.905599e-06 -4.4493354e-06 -7.018386e-05 -0.005167312 0.0006468853
-0.0007443214 -1.2868878e-07 0.032995887 -0.0014993048 1.31642755e-05 -0.00015416215 -9.5348245e-05 0.00023581536
-0.034255873 4.4492785e-06 -1.6345348e-06 -0.027542545 -5.1042356e-05 -9.497038e-06 -0.008484411 0.025892083
-0.013408798 -0.03623498 0.012628552 -2.6993757e-07 -7.9124795e-05 -3.634255e-06 0.016188039 -0.00027335153
-2.110481e-06 0.04311333 -0.0034898785 -0.025110021 -2.881609e-06 -0.00066661276 -6.282532e-05 -0.05280906
-0.000136338 -0.00045176904 -7.536289e-07 0.0043115746 -9.783875e-06 -1.950354e-05 -4.135783e-05 0.008957537
00000000: 810d 10bd 8c75 e3b4 73c5 00b6 90bb d03c
00000010: f2c1 6a3a a52d 12b5 7543 c7b7 df9f d9bc
00000020: ca85 023c 7be6 fd3b 6dea c6bc d360 fa3c
00000030: 6117 f4b5 09f4 3ab5 2fc4 86ba 9b6b 363d
00000040: 4700 d5b6 1868 683c f59c e936 960c 1bb7
00000050: d7e3 f8bc b66b aab5 5975 c0bb 3b43 903a
00000060: 6ff6 243c 3bf0 35b7 a3d6 d2b6 a6fe 33b8
00000070: b15c bdbb 246e f8bb 372a 0abe cc04 dcbc
00000080: d7a8 5038 6758 88b8 30cf d2b9 f878 ddbc
00000090: e5c6 2c3b ec6a 3bba 94dc 8dbc a30a 023d
000000a0: 1f90 47bb 26c2 df38 0046 d7b5 0541 72bd
000000b0: e6ee 4bba 07d1 39bc b067 32ba 8c8d 4ab4
000000c0: 1e0f 0637 a088 dcb7 5be2 ab32 eda5 35b1
000000d0: 2134 f2b6 de0c 20bc 992f 9fbc c531 11bd
000000e0: def6 b0bb e54b 133c c9aa 86b6 b725 8db7
000000f0: c97c 08ba e384 93b9 9d89 70b7 a609 efba
00000100: a5ff 073a 5c98 d138 a8af 4b3a 48de 25bc
00000110: 0460 81bc c544 ea38 12a9 68ba 03dc 543a
00000120: 3749 17b8 0a0e f5bc d616 afbd f64a 65b7
00000130: c895 a0b9 0386 20b9 5bbf f33c 0a87 0438
00000140: 59c9 27bb 24d4 00bc 98be b7b8 9577 e3bc
00000150: aedc 08bb 444d 4c36 8237 b03c bab4 91b4
00000160: 5995 bdb8 6bc1 3539 f21e d8b5 6fef edb8
00000170: 44a7 b7b5 0b0a f9b6 021c f7b7 ab5b e9b8
00000180: 664a b130 fc6f abb7 9699 98bd 7c38 97ba
00000190: a785 ae37 0237 44b8 7905 03b8 5bdd 6dbc
000001a0: 8927 aabb 21f3 a8b7 7035 573d c5db d5b6
000001b0: b9df 4dba a022 88bc 114b 51bb 0996 0436
000001c0: 06d1 96bc 709a c7ba 3d06 ccb8 5661 973c
000001d0: f9aa 49bb 84d0 a2bb 4825 0a3c a9f4 393c
000001e0: 2670 1eb2 03dc 51ba 8638 dabc 1a2f 3bbd
000001f0: 5dd7 f7ba c495 ccbb 8094 513b 5881 723b
00000200: f58d a5b9 7b5f 9e3b 9c9a ba38 1428 9cb5
00000210: 587f ddb2 654d 87bb 77fd 98bc c2d9 83ba
00000220: bfac 17bc d7f0 423b b364 343d 7cab a3b5
00000230: aeb6 03bd 5794 beb9 b28c e4b9 f4bf 8eb5
00000240: b78c 853b 881f a0bb a43e 0fbb c5a8 8fba
00000250: fe24 4f39 78e5 6c3b 38d0 d5bb 574c 01bc
00000260: e3d4 37b9 fbc9 f4b4 d324 8639 73ca ea36
00000270: 97fd 0d3a f856 a7bc e41f 8bbc fb3d 6537
00000280: 20c5 50bb b5bd 8cbd 0370 5f38 34e5 99bb
00000290: d561 5d3d 4f72 47b9 75ed bfb9 20c1 8433
000002a0: bf64 6bbb 4756 8dbb 3247 5fb7 db2a db3b
000002b0: 506a 90b4 a628 a8b5 48a7 1cbc 3f94 b1bb
000002c0: c17a 90ae f830 feb9 7088 febb a9b7 08bd
000002d0: d502 2db6 9a0a 5cb8 2b66 2eba 0c0f 80b9
000002e0: ebc8 4dbc 2575 f6b7 ee44 28bb 8273 45bb
000002f0: 9aa4 8dbc 894c 2abc 73aa 9fb4 e08e 553d
00000300: 88de 95b8 3a78 c0b5 2b60 cfb3 2a52 2dbd
00000310: 9ec8 04b9 1056 bcb9 ace5 9c3b 511e cfb9
00000320: 2fb3 563e ba91 4abd 3aa0 473a 474f 733b
00000330: 0b33 42ba 3763 75ba 7b5e 2c3b 6d7b af3c
00000340: ca11 16bc b429 793c eccf 3eb8 c69a a4b6
00000350: 804b 95b6 ac2f 93b8 8e52 a9bb bd93 293a
00000360: 901e 43ba b42d 0ab4 b226 073d 5284 c4ba
00000370: 22dc 5c37 96a6 21b9 b3f5 c7b8 3445 7739
00000380: e34f 0cbd 034b 9536 3062 dbb5 e7a0 e1bc
00000390: 5016 56b8 7855 1fb7 3302 0bbc a21b d43c
000003a0: 93b0 5bbc 216b 14bd fce7 4e3c f0eb 90b4
000003b0: cdef a5b8 07e4 73b6 c79c 843c 9f50 8fb9
000003c0: caa1 0db6 9a97 303d 72b6 64bb 88b3 cdbc
000003d0: aa61 41b6 a0bf 2eba 16c1 83b8 504e 58bd
000003e0: f4f5 0eb9 6adb ecb9 fc4c 4ab5 1c48 8d3b
000003f0: 6c25 24b7 899b a3b7 a277 2db8 a2c2 123c

layers.2.weight f4 [256]
-0.00143614 9.328699e-05 -1.8518933e-05 -0.0010801364 6.0344322e-05 -1.9435608e-06 -1.7842307e-06 -0.0002765634
0.00018600521 -2.7696464e-05 -0.0055430485 0.34336767 7.784162e-06 -5.471635e-05 0.00014110928 0.33812293
-2.940049e-06 -0.00010007362 0.00012195974 8.933253e-06 -0.003555996 1.0505572e-08 0.0007949873 3.5560908e-05
0.000109765635 -0.00019603757 -6.1359286e-05 -3.8826744e-05 -0.0021292367 0.08659455 0.097089216 -0.0020322744
7.068759e-05 0.00012365611 0.00023508049 -0.00018025735 -6.664119e-05 -5.5398464e-06 0.07906096 0.32060242
0.003062453 2.2207025e-05 -5.5142577e-06 0.0022876358 -0.0018178722 0.0044242456 1.5974734e-05 -6.3809116e-06
-1.10689625e-05 -1.6526001e-06 -1.5268427e-06 2.3490602e-06 4.310881e-05 0.00046519842 0.0007043276 -0.0026051025
0.00040157483 -0.001005972 -5.8729507e-05 0.00019784976 0.12557738 -9.0387424e-05 6.064555e-07 0.00030856745
0.0002370556 7.8885066e-08 1.998406e-05 -0.0025151584 -1.5463007e-05 9.448186e-06 -0.0001681948 0.00021773478
0.00019352746 0.0012644958 0.24476309 1.8871777e-08 -0.0007300576 -0.00010265308 -0.007383527 2.124671e-05
-0.0002139733 -0.003183391 -1.3812832e-05 0.03889809 0.0021882493 -3.8630926e-05 0.0017535712 3.6034467e-05
5.4251672e-05 1.0407481e-05 -3.395727e-05 4.234875e-07 -9.03114e-07 0.005644124 -7.128929e-05 -0.00020668507
-8.497952e-06 3.255693e-05 0.0064010927 1.4471316e-05 -2.3014158e-07 5.8240035e-05 -0.0002213766 0.052553073
-5.68689e-05 -0.00014244975 0.004705359 0.0002407488 -0.00087457855 -0.0027153767 0.00024891112 -1.2664164e-05
-0.014115078 -0.00030574203 0.002500284 0.006953347 -0.00063081423 0.14364898 0.0001599733 0.00018254176
-4.2264037e-06 0.00095804484 0.002410985 -0.0029400266 0.00067803107 0.1275172 1.1252885e-05 0.10246591
-0.00018070688 -0.00033170803 -1.1642932e-05 0.00013514938 -0.0001412908 7.199845e-05 5.066186e-05 -0.00036649706
-0.0008601854 -0.00019631367 0.27938965 0.000111809655 0.00027061216 0.00034078085 -0.0016081267 2.3184113e-07
0.00042318561 0.0014310862 -0.0007156954 -0.00036464125 -4.4886588e-06 -0.00061922945 0.0003441076 -2.0198275e-05
-0.00011057047 7.2163116e-06 -5.0327753e-06 -6.609935e-06 -0.00035896097 -0.00048285074 -0.001396485 4.034491e-05
-0.00078639155 0.062070508 3.3091073e-06 -0.00018485363 0.07639398 -2.163402e-05 -0.00015991273 -3.490814e-05
-0.00012448074 0.0041993586 0.00043007528 -0.0027681026 -3.2466218e-05 -8.080884e-06 -0.0017298092 -0.00024725017
-2.2717424e-08 3.900914e-06 -0.005187906 -0.0011581416 -1.6018417e-06 -8.29853e-05 -0.00023311985 -0.00010641602
0.00033717314 5.15589e-06 0.0015334145 -1.6911584e-06 -0.002492306 -0.0008160185 1.2643678e-08 0.16175534
4.053774e-05 7.509086e-07 -5.2727746e-08 -0.0022920133 7.894519e-06 -0.00048789268 0.0005791223 0.0008435925
0.116457835 -0.006416594 7.500442e-05 0.00037525775 7.0019356e-05 -0.00013423017 0.0048970296 0.014420683
0.0014805393 0.0015402029 6.306775e-05 -5.58968e-07 -2.1231212e-06 0.00010822811 -0.008177797 6.9918286e-08
0.0006109071 6.1565042e-06 -0.0041304776 1.6253558e-05 -4.5101166e-05 0.00016062272 -2.1094249e-07 -0.0003456964
0.11855788 2.0586589e-05 4.477818e-06 -0.0010184394 -2.3296367e-05 4.2118398e-05 0.1678797 0.0010076553
0.00015351208 0.08326543 -3.7171587e-05 0.00019668385 -2.5019995e-06 5.583779e-05 0.0021457635 -0.00082143315
0.000104019346 0.44013008 0.00051431573 -0.0017723627 -0.00011167133 -6.287384e-05 0.0005743047 0.0079319915
-6.8853966e-05 5.866977e-05 3.8612797e-08 -0.0012940454 -0.00026745393 -9.5878524e-05 -2.6827987e-05 -0.0051397635
00000000: dd3c bcba 12a3 c338 1b59 9bb7 5d93 8dba
00000010: 391a 7d38 1f6e 02b6 b379 efb5 b6ff 90b9
00000020: 650a 4339 b455 e8b7 76a2 b5bb e3cd af3e
00000030: b998 0237 3c7f 65b8 bcf6 1339 731e ad3e
00000040: a84d 45b6 9ede d1b8 a3c4 ff38 08e0 1537
00000050: b70b 69bb ff7b 3432 b266 503a 3c27 1538
00000060: fa31 e638 6f8f 4db9 04ae 80b8 e6d9 22b8
00000070: aa8a 0bbb 7c58 b13d b6d6 c63d e82f 05bb
00000080: 1c3e 9438 afa9 0139 f07f 7639 7703 3db9
00000090: b7c1 8bb8 ebe2 b9b6 b6ea a13d 0026 a43e
000000a0: 6fb3 483b 3949 ba37 1d07 b9b6 29ec 153b
000000b0: ab45 eeba 43f9 903b 7b01 8637 9d1b d6b6
000000c0: d5b4 39b7 e8ce ddb5 eaed ccb5 8ca4 1d36
000000d0: bbcf 3438 e0e5 f339 a0a2 383a 5eba 2abb
000000e0: 768a d239 d2da 83ba 5454 76b8 e475 4f39
000000f0: 5b97 003e 618e bdb8 4ecb 2235 39c7 a139
00000100: 2192 7839 8667 a933 71a3 a737 5bd5 24bb
00000110: 8eb6 81b7 a683 1e37 735d 30b9 bc4f 6439
00000120: a2ed 4a39 70bd a53a 2da3 7a3e 7a1b a232
00000130: 5661 3fba 7447 d7b8 83f1 f1bb f63a b237
00000140: 055e 60b9 70a0 50bb a9bd 67b7 9b53 1f3d
00000150: bb68 0f3b a407 22b8 16d8 e53a b723 1738
00000160: 4a8c 6338 ca9b 2e37 576d 0eb8 ae5b e334
00000170: 866d 72b5 58f2 b83b 2581 95b8 9ab9 58b9
00000180: 6d92 0eb7 bd8d 0838 42c0 d13b d4c9 7237
00000190: d61c 77b4 c346 7438 5421 68b9 e441 573d
000001a0: 8486 6eb8 905e 15b9 6a2f 9a3b 8471 7c39
000001b0: f943 65ba 76f4 31bb 4980 8239 2c78 54b7
000001c0: ee42 67bc 004c a0b9 cedb 233b e7d8 e33b
000001d0: 3a5d 25ba b818 133e 81be 2739 ae68 3f39
000001e0: 88d0 8db6 4d25 7b3a 9e01 1e3b 76ad 40bb
000001f0: e5bd 313a de93 023e c6ca 3c37 a6d9 d13d
00000200: 227c 3db9 19e9 adb9 0356 43b7 e3b6 0d39
00000210: 7627 14b9 e0fd 9638 c27d 5438 6726 c0b9
00000220: 117e 61ba 8dd9 4db9 290c 8f3e 5a7b ea38
00000230: f3e0 8d39 d5aa b239 c7c7 d2ba 01f0 7834
00000240: 03df dd39 4993 bb3a 819d 3bba 522d bfb9
00000250: 499d 96b6 c953 22ba 5769 b439 776f a9b7
00000260: 12e2 e7b8 a523 f236 36df a8b6 e9ca ddb6
00000270: ed32 bcb9 2127 fdb9 430a b7ba 0438 2938
00000280: d825 4eba a53d 7e3d 0812 5e36 45d5 41b9
00000290: 7274 9c3d b47a b5b7 3fae 27b9 546a 12b8
000002a0: 0b87 02b9 c69a 893b ba7b e139 0e69 35bb
000002b0: 562c 08b8 2293 07b7 c4ba e2ba 5ba1 81b9
000002c0: 2524 c3b2 99e4 8236 4fff a9bb c9cc 97ba
000002d0: ddfe d6b5 6508 aeb8 a271 74b9 aa2b dfb8
000002e0: 9dc6 b039 c200 ad36 dafc c83a c3fb e2b5
000002f0: f555 23bb 13ea 55ba 7c37 5932 31a3 253e
00000300: 1107 2a38 0c92 4935 c576 62b3 9a35 16bb
00000310: b372 0437 d9cb ffb9 3dd0 173a 8924 5d3a
00000320: 7281 ee3d 4b42 d2bb b14b 9d38 3ebe c439
00000330: 5bd7 9238 23c0 0cb9 4377 a03b ba44 6c3c
00000340: a80e c23a a2e0 c93a 3e43 8438 fd0b 16b5
00000350: f27a 0eb6 86f8 e238 2bfc 05bc fc25 9633
00000360: 4825 203a f893 ce36 f558 87bb 4058 8837
00000370: 022b 3db8 d56c 2839 6e7f 62b4 963e b5b9
00000380: 79ce f23d 5db1 ac37 2a40 9636 287d 85ba
00000390: 916c c3b7 49a8 3038 a8e8 2b3e 4d13 843a
000003a0: 16f8 2039 1187 aa3d b0e8 1bb8 eb3c 4e39
000003b0: 06e8 27b6 5f33 6a38 f09f 0c3b 7255 57ba
000003c0: f624 da38 bb58 e13e 25d3 063a a04e e8ba
000003d0: 1731 eab8 23db 83b8 f08c 163a 2ff5 013c
000003e0: b165 90b8 3014 7638 38d7 2533 f59c a9ba
000003f0: 0f39 8cb9 6412 c9b8 aa0c e1b7 766b a8bb

layers.2.bias f4 [256]
-0.0039132233 -3.6592685e-06 -7.864677e-10 0.0009184932 0.00093571446 0.00043071783 2.5608242e-07 0.00035181368
-0.00031717005 5.0246137e-05 -0.009161606 0.043514222 -2.605327e-06 -3.7738482e-06 1.2961139e-05 0.0033709519
2.112182e-06 0.00015554977 7.681657e-05 0.00096406485 0.0067138844 -2.1676613e-07 9.500945e-05 0.00023670073
-0.00035949112 -1.0503629e-07 -8.152399e-06 -4.561255e-06 -0.0010569571 0.0359126 0.006266754 -0.0014571758
-0.0007026541 3.336914e-06 -5.4611706e-07 -0.00021253384 1.0599745e-06 9.6694035e-05 0.019807752 0.02948423
-0.0017994789 1.9295878e-05 -2.0566745e-06 0.00336395 5.776205e-07 0.005305122 -1.1198914e-05 -1.0384536e-05
-2.7212528e-07 -6.1291204e-05 2.662437e-05 1.6938022e-06 8.976457e-05 -0.0004577159 5.6024364e-05 0.0005173095
0.0005159541 0.00064383325 -1.2364402e-06 -1.049737e-05 0.053851288 3.234318e-06 0.00019074873 -5.308667e-05
0.00036740888 -1.3512146e-06 -1.5496083e-07 -0.00037398463 -1.8664701e-05 1.3513085e-06 6.653333e-06 -6.959554e-05
-1.2904468e-06 0.00018031728 0.034111872 -3.9392606e-07 -3.956048e-06 6.973371e-06 -0.0005289096 -1.4543556e-06
-9.377969e-05 -0.00017313617 -0.001756331 0.005921157 -8.8709476e-07 -6.5139793e-06 9.506341e-05 4.2605495e-07
2.3341616e-05 -2.5859657e-05 -2.6027754e-05 -2.071052e-05 4.9535847e-05 1.4890642e-07 0.00014030331 -2.7038782e-06
2.9619687e-07 0.00032726163 0.0020188186 3.758154e-05 5.9658583e-07 0.0006683188 -2.7199078e-06 0.006023155
-8.382604e-05 -3.8109365e-06 -0.0013760339 -8.377405e-06 -0.0014252161 0.009552058 7.808719e-05 -5.214742e-09
-0.00092735246 -2.1201053e-05 7.337418e-06 0.0013457028 -0.0004152713 0.042383615 -0.0023894792 0.0008824566
-0.0028398996 6.4672636e-06 -0.0006873782 -0.00051902456 0.00070533005 0.039582793 -1.422506e-06 0.024519075
0.00021219086 0.0012073045 -1.1262624e-05 -2.4481683e-06 -5.4207398e-08 -0.00026550412 8.823594e-05 8.240353e-05
3.022973e-05 8.5605854e-05 0.068974726 -1.289791e-06 0.0013718586 2.8433533e-05 0.002014831 -5.0956332e-09
0.00092001347 -0.0007946938 3.7644702e-05 7.5053913e-06 -2.3929997e-06 0.00010216806 -0.0018560106 9.751188e-05
0.00034274318 -3.3154276e-05 -3.649686e-05 3.404896e-06 -0.00069861114 -0.00039401744 0.0008588481 5.3871674e-05
0.00011924884 0.007634396 6.6687966e-07 0.00025801183 0.023430683 0.00096177 -0.0010494972 1.0770599e-08
5.6593915e-05 -0.0010104935 -2.2012484e-05 0.003544724 7.4176427e-07 0.00014289471 0.00013921363 0.00032907413
1.8645261e-07 3.7201135e-06 5.1132974e-06 -0.0019174526 -0.00069695927 3.922118e-06 0.0017862164 2.0282458e-05
0.0004302393 -2.25522e-05 0.00050271524 7.1322904e-07 -0.001990915 6.353167e-05 -0.0021217728 0.002381278
-9.728703e-05 3.5490887e-06 -0.0006245465 0.0006033661 0.0002853354 -2.8566697e-06 -0.002977162 0.01067711
0.021536801 -0.0032416054 -0.00015438166 -6.976775e-05 1.798368e-05 0.0009836471 0.004357644 -0.0033864162
-3.470689e-05 0.003184168 0.00048342656 8.277338e-07 -2.654561e-07 2.8336588e-05 -0.0027566494 4.12892e-06
-2.9893338e-06 -1.5631762e-06 -0.011869707 3.4921013e-05 6.696415e-07 8.448908e-05 -1.3314551e-06 0.0014646065
-0.04139982 8.171146e-06 -1.9317993e-05 0.005295256 -0.004148138 -1.6402719e-05 0.058378648 0.0030217015
-0.009501628 0.009001912 -0.00037558563 -4.6744525e-08 -3.646196e-08 -3.996066e-08 -0.0010056861 7.3645555e-05
-1.8378495e-06 0.007300061 -0.0016461939 -0.0005062152 8.111835e-07 0.014223883 6.9364476e-05 0.0058598197
3.068515e-07 -0.0092906505 -0.003300897 -0.004219022 9.736218e-08 -0.00017172212 -8.817704e-06 -0.0061148065
00000000: 7f3a 80bb c191 75b6 bf2e 58b0 09c7 703a
00000010: bc4a 753a f8d1 e139 b37b 8934 a273 b839
00000020: d849 a6b9 61bf 5238 901a 16bc f83b 323d
00000030: 2dd7 2eb6 3842 7db6 ab73 5937 30eb 5c3b
00000040: 03bf 0d36 131b 2339 9518 a138 4cb9 7c3a
00000050: 2500 dc3b 38c0 68b4 cf3f c738 de32 7839
00000060: 157a bcb9 5090 e1b3 49c6 08b7 e20c 99b6
00000070: 9889 8aba 1719 133d 5859 cd3b b5fe beba
00000080: 5232 38ba bfef 5f36 e198 12b5 9edb 5eb9
00000090: 7244 8e35 37c8 ca38 de43 a23c e988 f13c
000000a0: 7edc ebba 95dd a137 6605 0ab6 b775 5c3b
000000b0: c70d 1b35 97d6 ad3b f8e2 3bb7 3e39 2eb7
000000c0: 9d18 92b4 7789 80b8 6657 df37 9a56 e335
000000d0: fd3f bc38 97f9 efb9 b4fb 6a38 0e9c 073a
000000e0: 1841 073a ebc6 283a c3f3 a5b5 dc1d 30b7
000000f0: 2b93 5c3d 290d 5936 b903 4839 61a9 5eb8
00000100: c9a0 c039 615b b5b5 4f63 26b4 5e13 c4b9
00000110: 2492 9cb7 9b5e b535 b23f df36 d2f3 91b8
00000120: 6a33 adb5 8d13 3d39 e4b8 0b3d c97c d3b4
00000130: 32be 84b6 cdfc e936 86a6 0aba 4733 c3b5
00000140: 96ab c4b8 e38b 35b9 b034 e6ba 4406 c23b
00000150: b020 6eb5 a892 dab6 c85c c738 8cbc e434
00000160: bdcd c337 31ed d8b7 2d56 dab7 81bb adb7
00000170: b6c4 4f38 16e3 1f34 621e 1339 4674 35b6
00000180: fd04 9f34 5094 ab39 284e 043b dfa0 1d38
00000190: 1125 2035 1e32 2f3a a987 36b6 e35d c53b
000001a0: c3cb afb8 64bf 7fb6 095c b4ba ae8c 0cb7
000001b0: 51ce baba 3c80 1c3c bec2 a338 5b2d b3b1
000001c0: 9219 73ba ead8 b1b7 f133 f636 4b62 b03a
000001d0: c5b8 d9b9 719a 2d3d cf98 1cbb a954 673a
000001e0: 9c1d 3abb 5f01 d936 2c31 34ba 260f 08ba
000001f0: e6e5 383a 9121 223d efec beb5 3adc c83c
00000200: 8d7f 5e39 6b3e 9e3a 9af4 3cb7 364b 24b6
00000210: aad1 68b3 5c33 8bb9 4f0b b938 0fd0 ac38
00000220: da95 fd37 4b87 b338 9f42 8d3d e21c adb5
00000230: f0cf b33a 8c84 ee37 410b 043b aa15 afb1
00000240: 0f2d 713a 0053 50ba b1e4 1d38 d2d6 fb36
00000250: 6c97 20b6 0f43 d638 6245 f3ba 4b7f cc38
00000260: 36b2 b339 220f 0bb8 3414 19b8 ab7f 6436
00000270: 0023 37ba 2094 ceb9 5224 613a 45f4 6138
00000280: 3c15 fa38 f529 fa3b 9f03 3335 c345 8739
00000290: b4f1 bf3c 4b1f 7c3a 488f 89ba 9809 3932
000002a0: 415f 6d38 8972 84ba 73a7 b8b7 9a4e 683b
000002b0: a71d 4735 02d6 1539 e0f9 1139 9587 ac39
000002c0: b433 4834 10a7 7936 e492 ab36 0853 fbba
000002d0: 25b4 36ba bd9a 8336 7a1f ea3a 3f24 aa37
000002e0: be91 e139 7b2e bdb7 a6c8 033a ba74 3f35
000002f0: 037a 02bb 4e3c 8538 710d 0bbb 370f 1c3b
00000300: 9406 ccb8 e12c 6e36 9bb8 23ba 372b 1e3a
00000310: 1299 9539 36b5 3fb6 7d1c 43bb 0cef 2e3c
00000320: f26d b03c 1d71 54bb 83e1 21b9 4750 92b8
00000330: a9db 9637 b8ed 803a 91ca 8e3b a3ee 5dbb
00000340: 3d92 11b8 79ad 503b 6a74 fd39 6f31 5e35
00000350: 0284 8eb4 5cb4 ed37 e7a8 34bb 278b 8a36
00000360: 5d9c 48b6 53ce d1b5 2979 42bc 2778 1238
00000370: 6ac1 3335 bb2f b138 73b4 b2b5 0af8 bf3a
00000380: dc92 29bd ce16 0937 130d a2b7 d483 ad3b
00000390: 1bed 87bb 9298 89b7 731e 6f3d bd07 463b
000003a0: b7ac 1bbc c17c 133c 40ea c4b9 26c4 48b3
000003b0: 599a 1cb3 36a1 2bb3 3ad1 83ba 2872 9a38
000003c0: 07ac f6b5 5a35 ef3b 1ac5 d7ba 87b3 04ba
000003d0: 1bc0 5935 4a0b 693c c577 9138 bb03 c03b
000003e0: 59bd a434 d037 18bc dd53 58bb b93f 8abb
000003f0: 6d15 d133 4e10 34b9 c0ef 13b7 b75e c8bb

layers.2.running_mean f4 [256]
0.027108442 -4.8899222e-09 1.2191185e-06 0.012920324 0.019350844 1.76608e-07 -2.1718583e-07 -0.00026607644
0.008532765 0.020207508 0.058471754 0.045258366 1.04105475e-05 -7.5528455e-09 -9.989832e-06 0.05688221
5.037891e-05 0.0038000604 0.00026678105 1.9657153e-07 0.006037798 2.2704697e-05 -4.671862e-05 0.016443854
0.0028146864 -1.1687242e-07 -6.288261e-08 8.528932e-08 1.2244094e-05 0.0111615425 0.0006976326 0.00134379
5.8486243e-05 1.5568705e-06 -4.0446357e-06 0.057065904 0.0025220115 8.7729604e-05 0.026000755 0.05373042
0.0025070757 0.00014811922 6.110598e-08 -0.00064565346 -6.6605835e-06 0.024387196 0.00044667718 1.7605677e-08
7.825207e-06 -2.6178893e-07 1.3987498e-08 2.4468723e-06 1.9394908e-07 0.044897247 0.0015118421 0.0076656095
-6.8967194e-05 0.035615288 1.1022468e-06 -1.8508153e-07 0.021293527 -3.0734031e-06 9.871265e-05 -2.1969447e-05
0.0026509766 0.00027900885 0.0007059234 0.02778315 0.03297297 0.00011103768 -9.4232955e-06 0.00040899578
-3.573408e-07 -0.00022799378 0.0015953688 8.4998836e-05 -3.30663e-06 -1.4419613e-06 0.10549109 3.014249e-05
-3.4643646e-05 -9.278355e-05 1.6839775e-07 0.005082118 -2.107232e-05 9.023313e-07 0.01114368 1.47293315e-08
-5.936536e-07 0.00018509876 0.0020673461 -8.9122557e-07 0.00050000544 -1.0056457e-07 -3.8402638e-07 -1.1399816e-06
2.3065838e-09 3.9650882e-07 -3.8262187e-05 -8.414911e-06 1.1664986e-05 -4.130701e-08 -2.952435e-07 0.0064777313
0.020598678 1.3519533e-06 0.018387642 -6.753282e-08 0.0035481297 0.010227075 -2.7345726e-05 1.6874661e-06
0.030730885 -1.2474559e-05 -1.4181466e-06 0.05344424 -2.8556768e-05 0.02023709 0.10686754 0.005860434
4.7551785e-05 -8.065901e-06 0.0011793076 0.1579585 0.018348355 0.022329237 0.0031792845 0.033612978
-3.138065e-06 0.004847042 0.0021357439 5.641904e-07 -1.8180442e-10 0.011130426 -0.0002511261 5.9806703e-06
-9.823239e-05 0.0042835018 0.052452985 -1.2600489e-08 0.009624639 -3.5466016e-06 0.00071847683 8.302595e-06
0.005572993 0.0009931131 -1.4188201e-05 -8.918703e-07 0.002497346 0.0013160004 0.019575272 0.0453817
1.3789768e-05 -6.675103e-09 0.005791241 0.00015734685 0.026387002 0.034359474 0.0005466434 5.3970853e-06
0.03947906 1.7886214e-05 1.994741e-05 -3.360788e-05 0.019728 0.0005036173 0.032875244 2.2083684e-07
-3.5961544e-05 -5.266364e-05 -1.3019618e-07 0.06406758 -3.0133378e-09 5.4105095e-07 -1.7464552e-05 -7.4664196e-05
-7.0417267e-13 -4.542701e-06 -7.692329e-05 0.0035969988 1.0096048e-05 6.3766956e-06 0.046867363 -1.1173598e-06
0.005867879 5.0532373e-05 -2.2301503e-05 0.0041024457 0.027404297 -0.00012302391 -2.5442137e-10 0.048578225
1.4894533e-05 3.0746475e-07 -7.3314976e-10 0.0016281069 0.00019233365 -4.768247e-06 0.005721229 0.0011398251
0.082241945 0.018770657 0.0004402227 0.040415253 -3.320097e-06 0.0016421688 0.005967272 0.02074767
-0.00011550728 0.07675638 1.044359e-08 -3.3048103e-08 9.231045e-05 3.3675215e-06 0.004639289 0.010871772
-6.6756443e-06 6.1957525e-07 0.22694868 -1.4701701e-05 1.8011891e-05 -3.0107068e-07 0.0010735447 0.011287843
0.078915335 1.3819927e-06 -1.3582229e-08 0.0039444133 4.8911143e-06 -7.011419e-08 0.013077569 0.014597673
-0.00014582256 0.001904161 0.0035936506 -1.736647e-09 -7.590918e-07 -3.7746766e-08 0.008502475 -2.807498e-06
3.9243386e-07 0.054526944 0.0025638528 0.010782743 2.69434e-07 -7.289123e-06 -3.8440092e-08 -0.0006994366
-5.4038594e-07 -3.8278863e-06 2.1148152e-08 0.0702007 8.405519e-07 -1.520748e-07 -1.807545e-07 0.014563992
00000000: 8612 de3c 3604 a8b1 98a0 a335 c4af 533c
00000010: a985 9e3c a3a1 3d34 9633 69b4 2d80 8bb9
00000020: 03cd 0b3c 378a a53c 1480 6f3d d660 393d
00000030: f6a8 2e37 c4c1 01b2 009a 27b7 52fd 683d
00000040: f14d 5338 6f0a 793b bfde 8b39 2c11 5334
00000050: b8d8 c53b f775 be37 bcf3 43b8 43b5 863c
00000060: 9a76 383b 4bfb fab3 150a 87b3 4d28 b733
00000070: fc6b 4d37 e7de 363c 55e1 363a 1c22 b03a
00000080: 204f 7538 aaf5 d035 28b7 87b6 f0bd 693d
00000090: 5548 253b 79fb b738 89ff d43c 6e14 5c3d
000000a0: c04d 243b 7350 1b39 5e39 8333 1241 29ba
000000b0: fa7d dfb6 a8c7 c73c ff2f ea39 4b3b 9732
000000c0: 0249 0337 ff8b 8cb4 ab4d 7032 f234 2436
000000d0: 5140 5034 2de6 373d 0129 c63a cb2f fb3b
000000e0: 7ba2 90b8 56e1 113d e9f0 9335 d3ba 46b4
000000f0: c36f ae3c aa40 4eb6 f303 cf38 074b b8b7
00000100: 02bc 2d3b ef47 9239 b80d 393a 7d99 e33c
00000110: aa0e 073d e7dc e838 bf18 1eb7 7c6e d639
00000120: 8cd8 bfb4 9d11 6fb9 b21b d13a 6741 b238
00000130: 79e7 5db6 6a89 c1b5 b60b d83d 81da fc37
00000140: 554e 11b8 ca94 c2b8 d2d0 3434 e587 a63b
00000150: 76c4 b0b7 bc37 7235 fb93 363c 490c 7d32
00000160: 915b 1fb5 1217 4239 507c 073b 8e3c 6fb5
00000170: cc12 033a f5f5 d7b3 2f2c ceb4 7801 99b5
00000180: da81 1e31 c2df d434 b67b 20b8 c42d 0db7
00000190: bcb4 4337 8a69 31b3 f581 9eb4 2643 d43b
000001a0: 8fbe a83c c374 b535 aea1 963c 8f06 91b3
000001b0: bd87 683b 768f 273c 8064 e5b7 e57c e235
000001c0: 56bf fb3c d349 51b7 2557 beb5 59e8 5a3d
000001d0: 318d efb7 41c8 a53c 5edd da3d e208 c03b
000001e0: 5772 4738 c852 07b7 ff92 9a3a dfbf 213e
000001f0: 4a4f 963c ceeb b63c 8b5b 503b c3ad 093d
00000200: 8c97 52b6 efd3 9e3b d6f7 0b3b de72 1735
00000210: 65e5 47af 645c 363c 93a9 83b9 91ad c836
00000220: 1d02 ceb8 9e5c 8c3b f1d8 563d 8979 58b2
00000230: a9b0 1d3c 2702 6eb6 2a58 3c3a 604b 0b37
00000240: a79d b63b 592b 823a dc09 6eb7 dc68 6fb5
00000250: 83aa 233b a57d ac3a 525c a03c 29e2 393d
00000260: 9a5a 6737 d45a e5b1 73c4 bd3b 79fd 2439
00000270: 8e29 d83c 85bc 0c3d 9e4c 0f3a 9c18 b536
00000280: cbb4 213d 5a0a 9637 bd54 a737 30f6 0cb8
00000290: 9d9c a13c 2f05 043a 31a8 063d 2b1f 6d34
000002a0: 6ad5 16b8 27e3 5cb8 0ecc 0bb4 dd35 833d
000002b0: 3313 4fb1 bd3c 1135 d780 92b7 0995 9cb8
000002c0: fd34 46ab 816d 98b6 e051 a1b8 a0bb 6b3b
000002d0: 3262 2937 66f7 d536 fef7 3f3d 31f8 95b5
000002e0: 5647 c03b b9f2 5338 1d14 bbb7 cf6d 863b
000002f0: fa7e e03c fbff 00b9 a0de 8baf f6f9 463d
00000300: 88e3 7937 a211 a534 d486 49b0 3466 d53a
00000310: 2cad 4939 eefe 9fb6 2679 bb3b 2f66 953a
00000320: 776e a83d ecc4 993c b1cd e639 778a 253d
00000330: d5ce 5eb6 0b3e d73a 1b89 c33b 05f7 a93c
00000340: 803c f2b8 7332 9d3d 656b 3332 c6f0 0db3
00000350: cc96 c138 94fd 6136 2d05 983b 841f 323c
00000360: 59ff dfb6 e350 2635 3c65 683e 53a7 76b7
00000370: 3e18 9737 d7a2 a1b4 2fb6 8c3a a5f0 383c
00000380: 5d9e a13d e87c b935 4657 69b2 2340 813b
00000390: 5a1e a436 af91 96b3 4d43 563c 142b 6f3c
000003a0: f2e7 18b9 0a95 f93a 7483 6b3b d6ae eeb0
000003b0: 64c4 4bb5 021f 22b3 f74d 0b3c 7368 3cb6
000003c0: b3af d234 a557 5f3d 5006 283b 1aaa 303c
000003d0: baa6 9034 1795 f4b6 5419 25b3 655a 37ba
000003e0: 0a0f 11b5 4b71 80b6 47a9 b532 62c5 8f3d
000003f0: 49a2 6135 014a 23b4 6b15 42b4 cf9d 6e3c

layers.2.running_var f4 [256]
0.000926828 1.9573302e-19 5.0187954e-11 0.00027411483 0.00010626057 1.2960155e-12 7.8199825e-12 2.6620744e-10
3.768447e-05 5.992659e-05 0.0038291062 0.0018183 4.121608e-11 9.45143e-16 4.9580044e-14 0.0023170516
9.0100005e-10 0.00011145114 2.0169011e-08 1.0241e-11 0.0010389902 1.6631524e-10 1.7452206e-10 7.1454335e-05
7.019429e-05 5.1790278e-17 5.4785516e-20 8.522048e-11 7.1561976e-07 0.00073544437 0.0007066488 9.3519746e-05
3.3886504e-08 6.1862615e-10 2.686399e-15 0.0016472046 6.3493393e-09 3.2596024e-08 0.0028416784 0.0023926
0.00019629567 1.6763754e-09 5.693557e-13 2.5319875e-07 7.0404907e-13 0.00029213715 1.929049e-07 2.2312347e-14
1.7375167e-14 6.6346534e-19 4.203592e-15 1.3198101e-10 7.370173e-12 0.0007963065 9.368685e-05 0.0001516495
9.6210094e-08 0.0002580306 4.9271774e-11 4.98049e-13 0.0013884355 3.1125967e-14 3.5148535e-09 6.590685e-12
2.4139808e-06 1.21895365e-08 1.1082437e-08 0.00034934102 0.00054560363 2.3275945e-13 1.402196e-13 6.3935886e-07
5.6635146e-18 1.0783065e-06 0.0002498325 2.6506919e-09 2.8756196e-14 4.1900107e-15 0.0022262216 2.007003e-12
3.0088163e-08 4.2184511e-10 2.9365368e-11 0.00041956065 1.7117718e-14 2.0319308e-12 0.0002964929 2.4040718e-14
1.6139007e-11 1.4456991e-10 1.2814473e-06 2.785318e-14 7.514941e-08 1.0687123e-14 3.689091e-13 1.4817975e-10
1.1378139e-16 4.4757045e-11 3.928113e-05 1.6999974e-11 2.6417097e-09 6.3253666e-11 7.4711e-13 0.0010812649
0.0002122699 1.6525536e-10 0.0014909384 3.4982971e-15 5.2366e-06 0.00012224272 1.334012e-07 7.716497e-14
0.0014907608 3.6895702e-08 7.440748e-12 0.003517498 3.1519802e-12 0.0009892049 0.0029839326 6.137279e-05
6.547027e-10 1.6881054e-15 8.346313e-05 0.010078492 0.0001152407 0.0033598137 7.794677e-10 0.0021573543
1.9763587e-16 0.00047771874 1.2868549e-06 1.1584624e-11 4.935522e-19 5.6811477e-05 2.6482564e-08 5.844923e-08
5.770789e-11 0.00043629616 0.002221994 1.0319105e-18 0.0010723121 1.5788221e-14 1.5581014e-05 2.4338604e-11
0.00047288454 4.6486373e-05 9.845452e-08 1.8184986e-09 1.664377e-06 2.3423498e-05 0.00017683153 0.0007647637
8.608912e-09 3.7162528e-16 9.4298475e-06 6.9683534e-09 0.00020270092 0.0006500812 1.3094841e-05 4.615901e-10
0.0005182828 5.3831485e-05 5.809022e-09 1.2514886e-09 0.0028380093 4.4547037e-06 0.00039687226 9.008534e-15
9.321833e-13 4.629317e-11 1.2453499e-17 0.0014590618 5.1202696e-20 8.876115e-12 2.769931e-06 2.1484686e-08
1.2840607e-27 4.4019682e-14 1.1973062e-11 0.00085118704 4.321201e-11 2.5136078e-09 0.00065304176 2.770925e-11
4.28751e-05 1.3985734e-09 5.2733334e-12 1.034063e-05 0.00043408092 1.8229875e-10 1.4579502e-15 0.0016677431
1.0495545e-08 2.2488771e-13 6.097583e-18 0.000245516 2.383559e-08 3.1951014e-10 0.000103969884 1.06739535e-05
0.0074916948 0.0015469718 2.6103241e-06 0.0005666678 2.6311722e-10 3.045473e-05 0.0009128131 0.0003903793
3.526704e-10 0.0012803823 6.167271e-11 3.9995966e-13 2.7233051e-09 1.4036863e-09 0.0003911775 3.2460575e-05
2.9819438e-13 1.0763676e-11 0.012700702 4.0915513e-14 2.1237805e-11 8.152879e-10 3.8801406e-07 0.00023472596
0.0032704729 2.0466781e-11 3.6230913e-16 0.0006303019 6.6009803e-10 9.2289195e-15 0.001073108 0.0007978284
2.7711207e-09 0.00023838614 8.3596664e-05 1.6838626e-15 4.903544e-16 9.184002e-19 0.00013956614 2.4559345e-15
7.371117e-12 0.0015907335 0.00011684889 0.00024728943 5.198787e-12 1.0574315e-11 3.2370263e-11 1.1404643e-06
1.1298749e-11 2.324177e-09 5.4209424e-14 0.0022510707 3.8642978e-11 8.980615e-16 8.628129e-13 0.002945043
00000000: 60f6 723a ad14 6720 9dba 5c2e 12b7 8f39
00000010: 36d8 de38 e165 b62b 1292 092d 5e59 922f
00000020: 640f 1e38 b059 7b38 bef1 7a3b 0654 ee3a
00000030: 2e45 352e 9f35 8826 e649 5f29 add9 173b
00000040: 3eaa 7730 e0ba e938 2040 ad32 5d29 342d
00000050: ba2e 883a 94dd 362f 98e3 3f2f c1d9 9538
00000060: 4635 9338 2bd7 6e24 d05b 811f de66 bb2e
00000070: 0419 4035 d6ca 403a 663e 393a 0820 c438
00000080: 9b8a 1133 f20b 2a30 5193 4127 04e7 d73a
00000090: 6129 da31 b5ff 0b33 743b 3a3b 2bcd 1c3b
000000a0: b8d4 4d39 3766 e630 6742 202b 5fef 8734
000000b0: 152c 462b fc29 9939 4c21 4f34 c5f8 c828
000000c0: 6880 9c28 06d2 4321 4b73 9727 5a1d 112f
000000d0: 4fa8 012d 3abf 503a bf79 c438 1a04 1f39
000000e0: 0f9c ce33 4848 8739 16b3 582e 3630 0c2b
000000f0: 2afc b53a cc2d 0c29 f589 7131 9de3 e72c
00000100: e0ff 2136 266a 5132 1365 3e32 c227 b739
00000110: d706 0f3a 2c08 832a 8cdf 1d2a 68a0 2b35
00000120: 62f2 d022 54ba 9035 f3fb 8239 7727 3631
00000130: a381 0129 07f6 9627 cde5 113b f43a 0d2c
00000140: 493a 0133 6ce9 e72f 7726 012e 7af8 db39
00000150: c52e 9a28 03fc 0e2c 9a72 9b39 1f8a d828
00000160: d0f5 8d2d d0f4 1e2f 32fe ab35 0fe1 fa28
00000170: d361 a133 a885 4028 68ad cf2a e4ec 222f
00000180: 572e 0325 f4d7 442e cbc1 2438 8a88 952d
00000190: 7389 3531 a618 8b2e f34a 522b 3bb9 8d3a
000001a0: c494 5e39 40b3 352f 976b c33a 3114 7c27
000001b0: 0db6 af36 482e 0039 0b3d 0f34 94c2 ad29
000001c0: a265 c33a 4177 1e33 26e6 022d d385 663b
000001d0: 07cd 5d2c 35a8 813a 158e 433b 44b5 8038
000001e0: 9bf6 3330 1948 f326 ed08 af38 4220 253c
000001f0: 61ad f138 5230 5c3b 2a42 5630 6662 0d3b
00000200: d0db 6325 5376 fa39 ffb7 ac35 82cc 4b2d
00000210: c0ab 1121 dc48 6e38 c67b e332 9c09 7b33
00000220: 4fcd 7d2e aebe e439 e09e 113b 7a48 9821
00000230: d38c 8c3a 2935 8e28 f9b3 8237 aa15 d62d
00000240: 7ded f739 5dfa 4238 f26d d333 bbee f930
00000250: 8f63 df35 947d c437 da6b 3939 6c7a 483a
00000260: 65e6 1332 363a d625 e334 1e37 496e ef31
00000270: 1d8c 5439 366a 2a3a eab1 5b37 08c3 fd2f
00000280: 5fdd 073a 1ec9 6138 b398 c731 d700 ac30
00000290: e5fd 393b 9d79 9536 4b13 d039 8848 2228
000002a0: 7131 832b 7a99 4b2e fcb9 6523 fd3d bf3a
000002b0: 43cc 711f 7826 1c2d 0de3 3936 538d b832
000002c0: b177 cb12 3d3f 4629 e1a1 522d 3222 5f3a
000002d0: 660c 3e2e dbbb 2c31 e430 2b3a afbb f32d
000002e0: cad4 3338 ed37 c030 f789 b92c ab7c 2d37
000002f0: 5b95 e339 8970 482f de1c d226 2c98 da3a
00000300: e54f 3432 7833 7d2a 0bf6 e022 9ab8 8039
00000310: 04bf cc32 0ea7 af2f 680a da38 4814 3337
00000320: e47c f53b c3c3 ca3a 072d 2f36 6f8c 143a
00000330: 75a6 902f 0979 ff37 da49 6f3a d3ab cc39
00000340: f2e1 c12f 80d2 a73a a69e 872e 4328 e12a
00000350: e424 3b31 d2eb c030 f516 cd39 4726 0838
00000360: 57de a72a 4a5b 3d2d 9b16 503c 6044 3829
00000370: 49cf ba2d c91a 6030 3f50 d034 c520 7639
00000380: 6e55 563b 1807 b42d 64db d025 d83a 253a
00000390: 4572 3530 e140 2628 88a7 8c3a 5c25 513a
000003a0: 126e 3e31 4bf7 7939 9e50 af38 91ab f226
000003b0: c555 0d26 2e88 8721 8058 1239 fff7 3027
000003c0: 8fac 012d 2980 d03a c50c f538 a0a6 8139
000003d0: 83ea b62c 7b06 3a2d ad5d 0e2e 0e12 9935
000003e0: 0bc5 462d 5bb7 1f31 3623 7429 b386 133b
000003f0: 20f4 292e 9f6c 8126 39dc 722b 9f01 413b

layers.3.weight f4 [128, 256, 5]
0.0076280436 0.0073001594 0.0069218744 0.006611683 0.0062998515 3.0204815e-06 3.0621386e-06 3.0219899e-06
3.0208057e-06 2.9353196e-06 4.969615e-07 4.6741056e-07 4.6488867e-07 4.7512796e-07 4.7525035e-07 -0.00060097204
-0.000628313 -0.00059394754 -0.0005267881 -0.0004608957 0.00036832926 0.000363274 0.00036579097 0.0003639082
0.00035629087 -9.284165e-07 -6.8073223e-06 -6.3139087e-06 -6.313696e-06 -4.7588774e-06 -8.7948095e-08 -9.186815e-08
-8.8275804e-08 -8.609247e-08 -7.999751e-08 -0.0002487998 -0.00023389736 -0.00022256747 -0.00021568633 -0.00019724098
0.001041506 0.0009778854 0.0009216475 0.00082082837 0.0006924315 9.0017325e-05 8.368489e-05 7.8617326e-05
7.329631e-05 6.789216e-05 0.009966546 0.008586817 0.007330271 0.0062666256 0.005437129 -0.03383778
0.0012755026 -0.0026686536 0.023373097 -0.040329006 1.9282118e-06 1.9533386e-06 1.9012165e-06 1.8633795e-06
1.7685987e-06 8.201574e-07 8.5566904e-07 8.565364e-07 8.572647e-07 8.344428e-07 1.3607222e-05 1.22384e-05
1.182794e-05 1.1959098e-05 1.1775617e-05 -0.013683824 -0.026809826 0.0066867205 0.016263288 0.047577392
-4.951654e-07 -5.458854e-07 -5.465569e-07 -5.4845333e-07 -5.2512667e-07 -0.00021377945 -0.00020586149 -0.00020119014
-0.00019903421 -0.00019199119 -2.4492654e-05 -2.5661433e-05 -2.536025e-05 -2.4908437e-05 -2.3854911e-05 -0.00039445036
-0.00041552878 -0.0004164084 -0.00042270232 -0.00041686726 -0.0017697946 -0.0017983669 -0.0016671843 -0.001553498
-0.0013619405 4.4537284e-08 4.79513e-08 4.771682e-08 4.7640402e-08 4.583183e-08 0.00021567696 0.00020717518
0.00020577187 0.00021014734 0.0002134736 -0.0002930764 -0.00027844473 -0.00027977166 -0.00028456975 -0.00028545488
0.00037387531 0.00036354165 0.00035509467 0.00035483195 0.00035071853 1.13609495e-07 1.1059995e-07 1.10438584e-07
1.1083011e-07 1.0993497e-07 1.6442019e-06 1.7997112e-06 1.7862325e-06 1.7842145e-06 1.7038278e-06 -4.3480486e-06
-3.828182e-06 -3.7023613e-06 -3.679331e-06 -3.5676624e-06 -0.00010872151 -6.194093e-05 -4.4660155e-05 6.0340157e-05
9.395167e-05 0.002656629 -0.0014786484 -0.011661268 -0.023064077 -0.028579839 -0.01401684 -0.012269848
-0.014177935 -0.006231787 0.0005647108 0.001637585 0.0015570445 0.0015159022 0.0014469004 0.0013618872
0.0006222828 0.0006383435 0.00063760363 0.0006455348 0.00062997435 -7.66059e-06 -6.994775e-06 -6.7750652e-06
-6.809814e-06 -6.623998e-06 -5.596349e-06 -5.0814915e-06 -4.967879e-06 -4.96353e-06 -4.8805605e-06 0.0005720658
0.0006380026 0.000665488 0.00061390916 0.0005186396 9.54301e-06 8.747149e-06 8.560233e-06 8.596992e-06
8.562088e-06 1.4757395e-05 1.1944479e-05 9.370413e-06 8.006358e-06 6.181278e-06 -0.0006374416 -0.0046026586
-0.0074358336 -0.008083065 -0.010246135 0.0015350688 -0.011757343 0.0022559313 0.007314757 0.025722984
0.00011341661 8.07609e-05 2.011954e-05 -6.67605e-05 -0.00017400853 1.0697838e-05 1.0039314e-05 1.0280812e-05
1.0133101e-05 1.0805266e-05 6.723335e-07 7.089884e-07 6.915928e-07 6.790881e-07 6.425088e-07 0.0013158848
0.0012967304 0.0013269777 0.0013409808 0.0014137372 -7.9378907e-07 -6.595478e-07 -6.383251e-07 -6.629556e-07
-6.404599e-07 -0.0071675004 -0.0069252965 -0.0066008638 -0.006231533 -0.005824147 -1.3245959e-05 -1.2995133e-05
-1.0277597e-05 -9.024126e-06 -1.002347e-05 3.6551266e-06 3.829743e-06 3.798594e-06 3.79772e-06 3.6591798e-06
1.9624477e-07 2.1460797e-07 2.1586305e-07 2.2031816e-07 2.164538e-07 -3.664381e-05 -3.6152727e-05 -3.495435e-05
-3.48205e-05 -3.378247e-05 -1.7968949e-05 -1.823942e-05 -1.7946639e-05 -1.7995495e-05 -1.7520293e-05 -5.202462e-07
00000000: abf4 f93b 2d36 ef3b e4d0 e23b d1a6 d83b
00000010: fc6e ce3b 7ab3 4a36 247f 4d36 64cd 4a36
00000020: 0cb9 4a36 68fc 4436 ef66 0535 6bf0 fa34
00000030: d095 f934 1715 ff34 e925 ff34 8d8a 1dba
00000040: 5fb5 24ba 25b3 1bba 2718 0aba 60a4 f1b9
00000050: 511c c139 d075 be39 a2c7 bf39 efca be39
00000060: 8dcc ba39 4c38 79b5 746a e4b6 10dc d3b6
00000070: 3cda d3b6 72ae 9fb6 fadd bcb3 0d49 c5b3
00000080: 2392 bdb3 d6e1 b8b3 19cb abb3 5871 82b9
00000090: 5842 75b9 0061 69b9 dc29 62b9 79d2 4eb9
000000a0: 2483 883a 642c 803a b79a 713a dc2c 573a
000000b0: 4b84 353a afc7 bc38 fc7f af38 5bdf a438
000000c0: a8b6 9938 5361 8e38 b94a 233c b9af 0c3c
000000d0: c532 f03b 4458 cd3b f229 b23b 7c99 0abd
000000e0: c42e a73a 94e4 2ebb f078 bf3c 0730 25bd
000000f0: 6d66 0136 1a16 0336 4d2d ff35 3b19 fa35
00000100: 9760 ed35 ca28 5c35 21b1 6535 bcec 6535
00000110: c81e 6635 79fe 5f35 934a 6437 8753 4d37
00000120: 9e70 4637 efa3 4837 e48f 4537 1e32 60bc
00000130: 48a0 dbbc 471c db3b 963a 853c 83e0 423d
00000140: 82eb 04b5 f688 12b5 1bb7 12b5 6d39 13b5
00000150: 6ef6 0cb5 fc29 60b9 86dc 57b9 91f6 52b9
00000160: d7b3 50b9 3e51 49b9 9375 cdb7 8243 d7b7
00000170: b9bc d4b7 76f2 d0b7 081c c8b7 3bce ceb9
00000180: 54db d9b9 6451 dab9 259e ddb9 fa8e dab9
00000190: 74f8 e7ba 2eb7 ebba 6c85 daba be9e cbba
000001a0: 2483 b2ba 4349 3f33 03f3 4d33 33f1 4c33
000001b0: 2d9d 4c33 a1d8 4433 5827 6239 2a3d 5939
000001c0: 77c4 5739 ff5a 5c39 e2d7 5f39 0ca8 99b9
000001d0: 38fc 91b9 51ae 92b9 4e32 95b9 1ba9 95b9
000001e0: b204 c439 bc99 be39 002c ba39 bd08 ba39
000001f0: a5e0 b739 7bf9 f333 f782 ed33 412a ed33
00000200: 7f01 ee33 6415 ec33 59ae dc35 9b8d f135
00000210: 7bbe ef35 2579 ef35 14af e435 74e5 91b6
00000220: d573 80b6 1576 78b6 6dea 76b6 f96b 6fb6
00000230: 6b01 e4b8 49e6 81b8 7a51 3bb8 c015 7d38
00000240: eb07 c538 d71a 2e3b 35cf c1ba e70e 3fbc
00000250: e0f0 bcbc 4420 eabc e3a6 65bc 7907 49bc
00000260: 924a 68bc 0534 ccbb 1a09 143a 3ca4 d63a
00000270: be15 cc3a 3db1 c63a eca5 bd3a 5a81 b23a
00000280: b120 233a 8256 273a db24 273a 1b39 293a
00000290: dd24 253a fc85 00b7 a9b4 eab6 5e55 e3b6
000002a0: db7f e4b6 b643 deb6 46c8 bbb6 ae81 aab6
000002b0: c1b1 a6b6 668c a6b6 b2c3 a3b6 b0f6 153a
000002c0: a13f 273a 2574 2e3a bfee 203a 50f5 073a
000002d0: ea1a 2037 b8c0 1237 ec9d 0f37 cd3b 1037
000002e0: e3a5 0f37 8796 7737 2665 4837 9e35 1d37
000002f0: 0c53 0637 c668 cf36 fb19 27ba e6d1 96bb
00000300: 4ba8 f3bb d56e 04bc 68df 27bc 5d34 c93a
00000310: dfa1 40bc 3fd8 133b a1b0 ef3b 02b9 d23c
00000320: 14da ed38 2e5e a938 62c6 a837 c501 8cb8
00000330: 0f76 36b9 dd7a 3337 866e 2837 c07b 2c37
00000340: 5601 2a37 4448 3537 687a 3435 5051 3e35
00000350: e5a5 3935 944a 3635 de78 2c35 c479 ac3a
00000360: 0df7 a93a fced ad3a d9c3 af3a 264d b93a
00000370: c514 55b5 c80b 31b5 5e59 2bb5 f6f5 31b5
00000380: 12ec 2bb5 5add eabb 99ed e2bb 0f4c d8bb
00000390: e331 ccbb 7cd8 bebb f63a 5eb7 ac05 5ab7
000003a0: f16d 2cb7 5366 17b7 7a2a 28b7 994a 7536
000003b0: 3e81 8036 59eb 7e36 55dc 7e36 3b90 7536
000003c0: 5ab7 5234 fd6e 6634 fcc7 6734 9890 6c34
000003d0: 5e6a 6834 feb1 19b8 b2a2 17b8 f39b 12b8
000003e0: 3a0c 12b8 a7b1 0db8 06bc 96b7 db00 99b7
000003f0: 1d8c 96b7 08f5 96b7 8bf8 92b7 0ca7 0bb5
