signal_quality/examples/denoising_models/lstm.pt (torch, 931201 bytes, 11 tensors)

layers.0.weight f4 [256, 768]
-0.00027015735 0.01935724 -0.029699083 -0.026555913 -0.013898061 0.009676295 -0.00071494654 0.028610934
-0.003202275 0.009548383 -0.010905175 -0.0070929425 -0.03447317 -0.023898046 -0.01487482 0.0013366947
0.01426543 0.021651458 -0.024463091 -0.01571341 0.013106468 0.029964043 -0.007426174 0.027002374
-0.0058162035 0.0038182375 0.032673556 -0.03347442 -0.022716492 -0.009135313 -0.014065694 0.031176943
-0.023389168 -0.016610831 -0.025210015 -0.033795234 -0.02106392 0.031018073 0.016101519 0.017489113
0.0018977345 -0.018499872 0.006104926 -0.033691805 -0.026073363 -0.018602585 0.022767011 0.021157045
-0.01600325 -0.001302011 0.023078158 0.035872687 0.014321252 0.0048747435 0.024194092 -0.021246573
0.006724111 -0.027976427 -0.025009591 -0.018640604 0.016327213 0.014511714 -0.02137468 0.0109013505
0.01980932 -0.0045544766 0.0013777578 0.008360923 0.022385912 0.03464802 -0.027807482 -0.013223837
0.014181523 0.029897701 0.0314009 0.031839307 0.0071813185 -0.031378362 0.0033194933 -0.022574589
-0.033628996 0.03206071 0.027437119 -0.03599519 0.0067539895 -0.006078777 -0.005938089 -0.016517878
0.013876475 -0.021372912 0.0132282255 0.018248169 0.02583179 0.013492356 -0.035713993 -0.023407832
0.018017478 0.007552512 -0.028148856 -0.020778095 0.033946365 0.024314309 -0.015733702 -0.009081893
-0.034373924 -0.00064858585 -0.027173672 -0.027833937 -0.0019882359 0.0054178927 -0.014777651 0.021411669
-0.021958763 0.032741897 0.024728628 -0.030429352 -0.0089808395 0.0016282224 0.0052647516 0.008558289
0.014160535 0.002161461 -0.017606612 0.017074738 -0.03461391 -0.02138746 -0.009033 -0.017577188
-0.012623524 -0.029575549 -0.0076756966 0.0077132713 -0.023507746 -0.0018518278 0.025831042 -0.0037094844
0.0010028651 -0.0031129608 0.0073028086 0.02294388 0.0341808 0.022915605 0.03425901 -0.0026096827
-0.032415386 -0.017106788 0.02457005 -0.00023391642 -0.017935615 -0.027651893 -0.033769652 -0.030455522
-0.007319241 0.019788897 0.019508705 -0.034800936 0.022508794 -0.028236376 -0.0076286113 -0.014631233
-0.006950405 -0.007084907 -0.032380328 -0.031156631 -0.0056464667 0.0004666499 -0.016392233 0.013592961
-0.03247806 -0.002435236 0.031733315 -0.014718534 0.032584317 0.013068099 -0.03256475 0.0228305
-0.0041639395 -0.01610832 0.028855002 -0.029159624 0.0038720332 -0.0075549423 0.02576832 0.01007276
0.017338743 0.012743526 -0.008677383 -0.007588744 -0.029736476 0.019552115 0.028650217 0.024689836
-0.025453147 0.0016093599 -0.025437118 -0.019863887 -0.021026572 0.012331661 -0.021503164 -0.00078726065
0.0015180026 0.02326083 -0.027276915 -0.024772376 -0.020952817 0.025256671 -0.012971076 0.030436777
0.013048388 0.0045692227 -0.00026861308 -0.0071332185 0.004527377 -0.008239679 -0.0002535446 0.004604117
-0.028225396 -0.018912964 0.029137883 -0.029284168 -0.0025910828 0.035696078 0.013035019 0.0010216589
-0.031271093 0.01787541 -0.025702218 -0.010243069 -0.012106903 -0.005343643 0.0003947014 0.029762678
0.0045047333 0.03232053 0.02207327 -0.022813056 0.016183997 -0.025507914 -0.015293472 0.010613238
0.01191478 0.027071523 -0.011616138 5.7766116e-05 0.018577095 -0.034896933 0.026088316 -0.029838992
0.0004973332 -0.0061349515 -0.019004673 0.0047693113 0.029838858 -0.0105481725 -0.02142309 -0.013345409
00000000: e8a3 8db9 1393 9e3c 7e4b f3bc c98b d9bc
00000010: b1b4 63bc 5389 1e3c 406b 3bba 7a61 ea3c
00000020: 42dd 51bb d270 1c3c 9eab 32bc ea6b e8bb
00000030: bd33 0dbd d6c5 c3bc 84b5 73bc 0834 af3a
00000040: 8db9 693c 665e b13c d266 c8bc 69b9 80bc
00000050: 83bc 563c 2777 f53c 4357 f3bb 1534 dd3c
00000060: da95 bebb 653b 7a3b b5d4 053d 791c 09bd
00000070: f017 babc 48ac 15bc cc73 66bc ca66 ff3c
00000080: a49a bfbc 7013 88bc 3c85 cebc df6c 0abd
00000090: 3e8e acbc 9d19 fe3c 55e7 833c 5445 8f3c
000000a0: 67bd f83a 0b8d 97bc d50b c83b 6b00 0abd
000000b0: ce97 d5bc 7364 98bc e281 ba3c 8a51 ad3c
000000c0: 3f19 83bc 3da8 aaba 680e bd3c 3def 123d
000000d0: afa3 6a3c 50bc 9f3b b032 c63c 4b0d aebc
000000e0: ee55 dc3b d22e e5bc eae0 ccbc 2eb4 98bc
000000f0: a6c0 853c 8ac2 6d3c f419 afbc 949b 323c
00000100: 2847 a23c b83d 95bb e195 b43a 41fc 083c
00000110: a962 b73c 15eb 0d3d 84cc e3bc cba8 58bc
00000120: 9e59 683c 06ec f43c 3b9e 003d ef69 023d
00000130: 4451 eb3b 9986 00bd db8b 593b 58ee b8bc
00000140: 8fbe 09bd 1752 033d cfc3 e03c b16f 13bd
00000150: 9250 dd3b 7a30 c7bb 4d94 c2bb 8050 87bc
00000160: 285a 633c 3f16 afbc 33bb 583c 2f7d 953c
00000170: 319d d33c 0b0f 5d3c d648 12bd c8c1 bfbc
00000180: 6499 933c 107b f73b 6e98 e6bc d336 aabc
00000190: 580b 0b3d cd2e c73c f7e3 80bc 38cc 14bc
000001a0: accb 0cbd dc05 2aba 529b debc ff03 e4bc
000001b0: 104d 02bb 9488 b13b f61d 72bc 8667 af3c
000001c0: dde2 b3bc 5e1c 063d b193 ca3c fa46 f9bc
000001d0: 5f24 13bc 146a d53a f083 ac3b 1138 0c3c
000001e0: 9701 683c 4ca7 0d3b be3b 90bc 52e0 8b3c
000001f0: 51c7 0dbd c134 afbc 26ff 13bc 09fe 8fbc
00000200: e6d2 4ebc 6c48 f2bc 6984 fbbb 9cbf fc3b
00000210: 5193 c0bc 08b9 f2ba 9f9b d33c d21a 73bb
00000220: 9272 833a d102 4cbb 664c ef3b cef4 bb3c
00000230: 2b01 0c3d 82b9 bb3c 2d53 0c3d 3607 2bbb
00000240: ffc5 04bd 8923 8cbc 2147 c93c 7647 75b9
00000250: b6ed 92bc 3986 e2bc 0c52 0abd dc7d f9bc
00000260: 3ed6 efbb 531c a23c b8d0 9f3c 6d8b 0ebd
00000270: 5d64 b83c f94f e7bc 6ef9 f9bb d7b7 6fbc
00000280: 39c0 e3bb 8228 e8bb 3ca1 04bd 313c ffbc
00000290: ff05 b9bb b0a8 f439 0149 86bc 03b5 5e3c
000002a0: b707 05bd 7b98 1fbb cbfa 013d 0226 71bc
000002b0: 2277 053d 941b 563c 9e62 05bd 0707 bb3c
000002c0: a871 88bb 98f5 83bc 5361 ec3c 2ae0 eebc
000002d0: f0c1 7d3b 738f f7bb 1518 d33c 3808 253c
000002e0: fb09 8e3c 39ca 503c 952b 0ebc 00ab f8bb
000002f0: e999 f3bc c22b a03c dcb3 ea3c 5742 ca3c
00000300: 1e83 d0bc 28f1 d23a 8161 d0bc 97b9 a2bc
00000310: eb3f acbc bc0a 4a3c 6727 b0bc 2b60 4eba
00000320: b7f7 c63a 7f8d be3c d673 dfbc 70ef cabc
00000330: 3ea5 abbc 14e7 ce3c a384 54bc 8c56 f93c
00000340: e8c8 553c 6bb9 953b a3d4 8cb9 c6bd e9bb
00000350: 645a 943b b8ff 06bc 2eee 84b9 22de 963b
00000360: f238 e7bc 5cef 9abc 92b2 ee3c 5ae5 efbc
00000370: 28cf 29bb 0d36 123d d590 553c 2fe9 853a
00000380: 1e16 00bd 746f 923c 758d d2bc 8cd2 27bc
00000390: 085c 46bc ba19 afbb edef ce39 dcd0 f33c
000003a0: 719c 933b 8862 043d 01d3 b43c 72e2 babc
000003b0: 4d94 843c f9f5 d0bc 7991 7abc 26e3 2d3c
000003c0: 3636 433c 19c5 dd3c 9d51 3ebc e549 7238
000003d0: fe2e 983c 16f0 0ebd 2ab7 d53c e770 f4bc
000003e0: 775f 023a b407 c9bb b0af 9bbc e247 9c3b
000003f0: 9f70 f43c 3ed2 2cbc 7a7f afbc b4a6 5abc

layers.0.bias f4 [256]
0.0003631449 -0.023494974 3.4472978e-05 0.03367095 -0.02240809 -0.0060844207 0.011394434 0.006644953
0.014967515 0.02550809 -0.026846068 -0.03572488 0.033078585 0.0030457743 -0.019943247 -0.0206062
0.00075197895 -0.032939725 -0.02793296 0.009335411 0.0012806794 0.010374526 -0.004026353 -0.022432946
0.014563444 -0.03205761 -0.018576209 -0.006964415 0.0089620715 0.020571081 0.02415234 0.0041272426
-0.010765188 0.027730484 0.019650154 -0.010177715 -0.031591676 0.0012006224 -0.011673912 0.0019512249
0.0070949383 -0.034213416 -0.017939892 -0.025748381 0.014808093 -0.030893877 0.0054951324 -0.019770525
-0.025688883 0.033264972 -0.0126533555 -0.0281181 0.021638341 0.035152618 -0.027212942 -0.018027002
-0.030382687 -0.013255394 0.002353312 -0.004835926 -0.0069346996 0.0022308629 0.03120465 0.03551169
-0.02043602 -0.018505676 0.024580099 -0.02358156 0.009148219 0.033823323 0.016785007 -0.03577748
0.03216274 -0.0011815061 0.016244723 0.013161172 0.026386652 0.008873407 -0.024921538 -0.015906801
0.012725279 0.01061135 -0.022835333 0.028103964 0.030544566 -0.027168829 0.02158295 -0.008725875
0.019843256 0.032946557 0.0135685885 0.024094006 0.0005299995 0.032173466 0.024126736 8.163996e-05
0.016279321 -0.014209101 0.034376696 0.027668213 -0.03329317 -0.004913234 -0.0038983847 -0.0012180868
-0.012690418 0.0042757895 0.0048748595 -0.018560141 -0.030250268 -0.021280272 0.024293024 0.015593986
0.004819386 0.02084521 -0.021947274 -0.022501629 0.0033045022 0.013882696 0.009476293 -0.024422992
-0.017373974 0.024871984 0.007528238 0.01762387 -0.014418588 0.029553955 0.029753352 0.020702487
0.0023262808 -0.019867066 -0.026378475 0.01028513 -0.004052911 -0.035942283 0.012606287 0.0027856696
0.025672253 0.006262507 0.021217529 0.025736183 -0.014240136 -0.025780858 -0.010007535 -0.021348832
0.009607736 -0.021944 0.020769343 0.032083023 -0.019085139 0.026652327 0.013500022 -0.022548659
-0.019754287 -0.030257164 -0.035951123 0.017996013 -0.020427033 -0.024837589 0.008344323 -0.0034190062
-0.010691411 0.024789173 -0.018528469 0.0057006753 -0.002152393 0.03594441 -0.005269578 -0.024854494
0.017997589 -0.028794581 0.013251066 0.008095154 0.0057977065 -0.030575871 -0.019807307 0.025416367
0.0012017365 0.032061104 -0.011497281 0.02927839 0.017333461 0.006859383 -0.010517644 -0.030239122
0.021215672 0.009229558 -0.0015830771 0.0042921826 -0.00815606 0.027533062 0.011614503 0.021704514
0.020783473 0.023130508 0.018789517 0.015173815 -0.030652836 -0.0058105383 0.031073652 -0.029559698
-0.035054762 -0.007167334 0.011542576 0.0060874186 0.010375007 0.035401337 0.0064138453 0.025840595
0.0064615416 -0.013844253 0.022550877 -0.03590803 -0.009385834 -0.034222815 -0.012445576 -0.029076358
-0.02999036 0.016575824 -0.009634247 -0.024225859 -0.017797736 -0.00078561745 0.017051259 -0.020998057
-0.008971251 -0.00062055234 -0.032173578 -0.030271165 3.6425903e-05 -0.0004329254 0.004329069 -0.014793661
0.0018228223 0.033088297 -0.00084341364 0.019816557 0.018007336 0.011115308 -0.008627256 0.03282211
-0.0151173305 0.0018055169 -0.011173495 0.034435593 -0.021171726 0.0347528 0.0024626974 -0.03325927
0.01916945 0.011825092 0.010430722 0.009476258 -0.021461163 0.010423448 0.020418251 0.026102219
00000000: 7c64 be39 8878 c0bc 1497 1038 8dea 093d
00000010: 2c91 b7bc d25f c7bb b8af 3a3c e8bd d93b
00000020: 4f3a 753c 58f6 d03c 49ec dbbc 4054 12bd
00000030: 697d 073d 9d9b 473b 0560 a3bc 55ce a8bc
00000040: 7420 453a ceeb 06bd aad3 e4bc 8df3 183c
00000050: 78dc a73a eaf9 293c 7fef 83bb 4cc5 b7bc
00000060: 839b 6e3c d74e 03bd 222d 98bc bf35 e4bb
00000070: a7d5 123c af84 a83c 21db c53c d23d 873b
00000080: 7960 30bc 0a2b e33c 5cf9 a03c 6ec0 26bc
00000090: 4666 01bd 345e 9d3a f043 3fbc 3ec0 ff3a
000000a0: a87c e83b 5e23 0cbd aef6 92bc 45ee d2bc
000000b0: a59d 723c 2815 fdbc 8310 b43b ccf5 a1bc
000000c0: 7e71 d2bc da40 083d 0550 4fbc ee57 e6bc
000000d0: e442 b13c 31fc 0f3d aded debc 5dad 93bc
000000e0: 1de5 f8bc 272d 59bc 063a 1a3b b076 9ebb
000000f0: 7a3c e3bb ab33 123b e5a0 ff3c b574 113d
00000100: 7169 a7bc 3799 97bc 345c c93c 1e2e c1bc
00000110: 69e2 153c 538a 0a3d b680 893c 688b 12bd
00000120: 14bd 033d c4dc 9aba a713 853c f5a1 573c
00000130: d228 d83c c461 113c 4128 ccbc fb4e 82bc
00000140: b07d 503c 3adb 2d3c 2a11 bbbc 493a e63c
00000150: 9938 fa3c 2a91 debc bace b03c f9f6 0ebc
00000160: 538e a23c f8f2 063d c94e 5e3c cb60 c53c
00000170: aaef 0a3a 53c8 033d 6fa5 c53c 1f36 ab38
00000180: 365c 853c 4acd 68bc 94ce 0c3d 73a8 e23c
00000190: 6b5e 08bd 32ff a0bb 0b7c 7fbb 36a8 9fba
000001a0: 79eb 4fbc ec1b 8c3b 49bd 9f3b 700b 98bc
000001b0: 69cf f7bc f753 aebc 2a02 c73c eb7d 7f3c
000001c0: f1eb 9d3b 93c3 aa3c c5ca b3bc 5655 b8bc
000001d0: 5990 583b 3f74 633c 7442 1b3c ba12 c8bc
000001e0: dd53 8ebc 55c0 cb3c 70af f63b ef5f 903c
000001f0: f13b 6cbc 231b f23c 4dbd f33c 4398 a93c
00000200: 8474 183b 42c0 a2bc ac17 d8bc f682 283c
00000210: 48ce 84bb 3738 13bd 9a8a 4e3c c88f 363b
00000220: 9e4e d23c b735 cd3b 62d0 ad3c b0d4 d23c
00000230: 764f 69bc 6132 d3bc a5f6 23bc bfe3 aebc
00000240: c469 1d3c e7c3 b3bc 7824 aa3c 7d69 033d
00000250: 7058 9cbc fb55 da3c 322f 5d3c f7b7 b8bc
00000260: bed3 a1bc dfdd f7bc 7c41 13bd 606c 933c
00000270: 9856 a7bc 3378 cbbc a1b6 083c 6811 60bb
00000280: 072b 2fbc aa12 cb3c 04c9 97bc bbcc ba3b
00000290: 2a0f 0dbb 723a 133d 6dac acbb a79b cbbc
000002a0: ae6f 933c 9de2 ebbc 001b 593c 89a1 043c
000002b0: b0fa bd3b 407a fabc ef42 a2bc fc35 d03c
000002c0: 9683 9d3a 8152 033d 175f 3cbc 3cd9 ef3c
000002d0: e7fe 8d3c adc4 e03b 3252 2cbc 09b8 f7bc
000002e0: 7dcc ad3c 9237 173c 417f cfba 70a5 8c3b
000002f0: ffa0 05bc 048d e13c c24a 3e3c aacd b13c
00000300: 1a42 aa3c 317c bd3c 79ec 993c 989b 783c
00000310: a81b fbbc 5466 bebb 2c8e fe3c 2e27 f2bc
00000320: 9595 0fbd f5db eabb 131d 3d3c f878 c73b
00000330: effb 293c fe00 113d 3c2b d23b a8af d33c
00000340: 57bb d33b 01d3 62bc 9ebc b83c 4c14 13bd
00000350: 0bc7 19bc 392d 0cbd 87e8 4bbc 8b31 eebc
00000360: 58ae f5bc 06ca 873c f6d8 1dbc 4f75 c6bc
00000370: 8fcc 91bc e5f1 4dba 15af 8b3c 1e04 acbc
00000380: 27fc 12bc 90ac 22ba 71c8 03bd 3cfb f7bc
00000390: 04c8 1838 43fa e2b9 ddda 8d3b 1d61 72bc
000003a0: c4eb ee3a 9887 073d 8818 5dba 5556 a23c
000003b0: 1f84 933c fb1c 363c 5659 0dbc 7a70 063d
000003c0: aeae 77bc 18a7 ec3a 0911 37bc 560c 0d3d
000003d0: 5470 adbc f458 0e3d 3565 213b df3a 08bd
000003e0: 4009 9d3c 08be 413c 9ee5 2a3c 4f42 1b3c
000003f0: 52cf afbc 1cc7 2a3c 2d44 a73c 52d4 d53c

layers.2.weight f4 [64, 256]
0.049146958 0.01642491 0.018579327 0.007665023 0.035899185 0.01618328 0.06099134 -0.01954288
-0.045541085 0.056459405 0.04822678 0.02718833 0.047474712 -0.002352275 -0.05909001 -0.010333911
-0.045381717 -0.029910937 0.04005629 -0.024080925 -0.061660476 0.02306468 0.0452967 0.02706965
-0.053901672 0.016877383 -0.00096294284 -0.030177735 -0.04495044 0.010177545 -0.052578703 0.02331426
0.022848703 0.0027004331 -0.053933874 -0.03970161 0.032451004 -0.028279252 0.051331885 -0.0490741
-0.021601886 0.017008483 -0.051465087 -0.02947551 -0.0044032857 -0.029255144 -0.061854877 0.0362482
-0.0071076006 0.0049134493 -0.016649045 0.01491829 0.024817154 0.009049915 -0.061183244 0.055852756
0.02104617 0.049521483 -0.01742439 -0.03842423 -0.053316817 0.058256075 0.015208781 -0.0021004006
0.046056397 0.029304922 -0.018362448 -0.05045692 -0.010042109 0.058954656 0.04027664 0.062047824
-0.014620699 -0.04203835 -0.061439514 0.018823214 0.05970733 7.223338e-05 0.055657096 -0.0005755201
-0.0004355684 -0.034315474 0.054010123 -0.035286643 0.023079567 0.03371399 -0.042181127 -0.024292752
-0.038541026 -0.015215196 -0.018086202 -0.00040122122 -0.0026318356 -0.0256944 -0.009958908 0.024705663
0.025802188 0.0040108785 0.047570847 0.02870559 -0.03441242 -0.021338776 -0.014371954 -0.021138646
0.061724946 -0.022959054 -0.0066415593 -0.041455895 0.020347856 0.04898747 0.04188364 -0.046418577
0.032109812 -0.057442218 0.010537475 0.021097183 0.025213517 -0.056582466 -0.011532724 0.056005068
0.0024446025 0.032937333 0.011381015 0.022857472 -0.015317738 -0.011369504 0.025001332 0.012589127
-0.01224418 0.01619374 0.026108362 -0.0056417584 0.015917204 0.030510329 -0.034935497 0.01258681
0.019030042 -0.028311953 0.03069055 -0.00872796 -0.017839938 -0.016047113 -0.013403617 -0.00041989982
-0.0023370609 0.05251371 -0.024529666 -0.036749765 0.012225404 -0.024559453 -0.04325799 0.023459703
-0.0353501 -0.0053156465 -0.028114446 0.037394032 0.013178043 0.004574962 -0.034358494 -0.05237332
-0.04303424 -0.038674667 0.026940748 0.014190152 0.030981548 -0.03491223 0.02875977 -0.013107069
0.00085700303 0.00074349344 -0.031554595 -0.04625558 -0.00520847 -0.05783035 0.029728219 0.046744347
0.024088956 -0.028346539 0.0010406822 0.03621176 0.0010244548 0.055140562 -0.04002212 -0.062355258
0.03458047 -0.055586644 0.048481464 0.03925749 0.03153068 0.032707214 0.014875889 0.04720263
-0.0533946 -0.03708422 -0.021556802 0.0024118498 -0.044781446 0.010200791 0.008288063 0.057475522
0.05645466 0.047076106 -0.061492264 -0.02635093 -0.041486815 0.03314103 -0.0040052608 0.046992324
0.024339363 -0.062360145 0.052047975 -0.025245383 -0.027733624 0.050268203 -0.05361329 -0.046189874
0.049661122 -0.052554652 -0.01688575 0.060186088 -0.02353207 -0.050126255 -0.049080692 -0.040468507
-0.04072407 -0.040707998 -0.030584708 -0.030273058 0.04694259 -0.04364855 0.02431672 -0.04668589
-0.041774802 -0.04437966 -0.052142866 0.026778258 -0.05407983 -0.04884518 0.04093679 0.015969962
-0.015446834 0.016487606 -0.012216225 -0.028194614 -0.050630167 0.05520854 -0.007978924 -0.049266376
0.037620217 -0.054371744 0.039910987 0.034790665 0.018310234 0.03205303 -0.037414603 -0.053762987
00000000: 524e 493d 888d 863c ac33 983c e02a fb3b
00000010: 060b 133d cc92 843c 0ed2 793d 6418 a0bc
00000020: 4a89 3abd fa41 673d 7289 453d 10ba de3c
00000030: d874 423d a028 1abb 5e08 72bd 904f 29bc
00000040: 2ee2 39bd c807 f5bc 1012 243d 5c45 c5bc
00000050: b28f 7cbd 24f2 bc3c 0889 393d 2cc1 dd3c
00000060: 00c8 5cbd 7042 8a3c 006e 7cba 4c37 f7bc
00000070: f41d 38bd b8bf 263c c45c 57bd 8cfd be3c
00000080: 342d bb3c c0f9 303b c4e9 5cbd 289e 22bd
00000090: 58eb 043d e4a9 e7bc 6241 523d ec01 49bd
000000a0: 70f6 b0bc 6055 8b3c 0ecd 52bd a076 f1bc
000000b0: 7049 90bb 7ca8 efbc 8a5b 7dbd fe78 143d
000000c0: e0e6 e8bb 0001 a13b 9463 88bc d86b 743c
000000d0: 584d cb3c 1846 143c 489b 7abd dcc5 643d
000000e0: 0469 ac3c 0ad7 4a3d 98bd 8ebc ba62 1dbd
000000f0: bc62 5abd ec9d 6e3d 402e 793c e0a6 09bb
00000100: a2a5 3c3d e010 f03c d86c 96bc eaab 4ebd
00000110: a887 24bc 707a 713d 1ef9 243d dc25 7e3d
00000120: a88b 6fbc 6830 2cbd 00a8 7bbd 2433 9a3c
00000130: ac8f 743d 007c 9738 b2f8 633d 80de 16ba
00000140: 005d e4b9 628e 0cbd b839 5d3d ba88 10bd
00000150: 5c11 bd3c ae17 0a3d 1ec6 2cbd 9801 c7bc
00000160: 32dd 1dbd 2849 79bc 8429 94bc 005b d2b9
00000170: e07a 2cbb 107d d2bc b02a 23bc 8863 ca3c
00000180: 1c5f d33c b06d 833b a6d9 423d fc27 eb3c
00000190: 0af4 0cbd a8ce aebc 5878 6bbc f42a adbc
000001a0: 4cd3 7c3d a014 bcbc 70a1 d9bb a8cd 29bd
000001b0: 8cb0 a63c 16a7 483d 2e8e 2b3d 6821 3ebd
000001c0: 9485 033d 8848 6bbd 60a5 2c3c 00d4 ac3c
000001d0: 948c ce3c 04c3 67bd c0f3 3cbc 9265 653d
000001e0: a035 203b 4ce9 063d 7077 3a3c 983f bb3c
000001f0: 40f7 7abc 2847 3abc 98cf cc3c a042 4e3c
00000200: d09b 48bc bca8 843c 34e1 d53c 80de b8bb
00000210: cc64 823c ccf0 f93c 8618 0fbd e838 4e3c
00000220: e4e4 9b3c 78ee e7bc c06a fb3c b8ff 0ebc
00000230: 1025 92bc 3c75 83bc d89a 5bbc 0026 dcb9
00000240: 6029 19bb 9e18 573d 70f2 c8bc ec86 16bd
00000250: 104d 483c e830 c9bc 4a2f 31bd 902e c03c
00000260: 44cb 10bd e02e aebb 4450 e6bc 7c2a 193d
00000270: b8e8 573c 90e9 953b 7ebb 0cbd 6885 56bd
00000280: ac44 30bd 5469 1ebd d8b2 dc3c d07d 683c
00000290: 04cd fd3c 2000 0fbd 9c99 eb3c 08bf 56bc
000002a0: 80a8 603a 00e7 423a 643f 01bd 7e76 3dbd
000002b0: d0ab aabb 84df 6cbd 9888 f33c 0077 3f3d
000002c0: 3456 c53c 0037 e8bc 8067 883a c852 143d
000002d0: 0047 863a 12db 613d 3cee 23bd 3a68 7fbd
000002e0: 40a4 0d3d d2ae 63bd 8094 463d 76cc 203d
000002f0: 5026 013d 00f8 053d 00ba 733c 8c57 413d
00000300: 4cb4 5abd a0e5 17bd e497 b0bc 2010 1e3b
00000310: c06c 37bd 3821 273c a8ca 073c 746b 6b3d
00000320: 003d 673d e0d2 403d 50df 7bbd e8dd d7bc
00000330: 14ee 29bd e4be 073d 903e 83bb 067b 403d
00000340: 5863 c73c 5a6d 7fbd 4230 553d 68cf cebc
00000350: a031 e3bc 08e6 4d3d 9c99 5bbd 9831 3dbd
00000360: 7669 4b3d 8c43 57bd fc53 8abc b085 763d
00000370: 54c6 c0bc 3051 4dbd d608 49bd 4ec2 25bd
00000380: 48ce 26bd 6ebd 26bd c88c fabc 34ff f7bc
00000390: e046 403d d2c8 32bd dc33 c73c b439 3fbd
000003a0: 0e1c 2bbd 72c7 35bd c293 55bd 145e db3c
000003b0: d082 5dbd e211 48bd 56ad 273d 70d3 823c
000003c0: b814 7dbc 0411 873c 9026 48bc 64f8 e6bc
000003d0: 9461 4fbd 5a22 623d 08ba 02bc 8acb 49bd
000003e0: a817 1a3d e8b4 5ebd b479 233d a880 0e3d
000003f0: 58ff 953c 0a4a 033d 0e40 19bd 9436 5cbd

layers.2.bias f4 [64]
0.04612302 0.04669612 -0.028305091 -0.03905069 0.0070912316 0.029270425 0.018440023 -0.007889032
-0.023145735 0.036239304 0.045249984 -0.03458844 0.049327254 -0.055736385 0.045879044 -0.048179433
0.004666202 0.04847435 -0.049477585 -0.058002234 0.015975244 0.048289843 0.01706767 -0.04242979
-0.032331377 -0.031241938 0.043737218 -0.041064158 0.043124676 -0.022793561 0.04133877 -0.02242577
0.03438274 0.045026593 -0.00093311816 0.016819008 -0.058323592 0.027975887 -0.009733088 -0.008692235
0.0057919696 -0.008961357 0.050124533 0.015724912 0.00018721819 -0.028651573 0.02547945 -0.0109572485
0.02123832 0.031155765 -0.038528435 -0.03525704 0.014429972 -0.048462354 -0.035110258 -0.059587836
0.0077649206 0.039143622 -0.0066616386 -0.035884522 -0.034901693 0.058216624 0.040690653 0.018766351
00000000: 7eeb 3c3d 6e44 3f3d 14e0 e7bc 9ef3 1fbd
00000010: 905d e83b 88c8 ef3c 880f 973c 0041 01bc
00000020: 209c bdbc aa6f 143d 0c58 393d 9cac 0dbd
00000030: 600b 4a3d d64b 64bd aaeb 3b3d cc57 45bd
00000040: f0e6 983b 0a8d 463d 02a9 4abd c093 6dbd
00000050: 84de 823c 92cb 453d 80d1 8b3c dcca 2dbd
00000060: e86d 04bd 18ef ffbc cc25 333d e432 28bd
00000070: 80a3 303d 90b9 babc d852 293d 40b6 b7bc
00000080: ead4 0c3d ce6d 383d 809c 74ba 04c8 893c
00000090: b8e4 6ebd b02d e53c 8877 1fbc e069 0ebc
000000a0: 90ca bd3b a8d2 12bc 624f 4d3d 88d1 803c
000000b0: 0050 4439 b4b6 eabc 48ba d03c 0886 33bc
000000c0: fcfb ad3c 603a ff3c fecf 1dbd b069 10bd
000000d0: b06b 6c3c 7680 46bd c6cf 0fbd 6012 74bd
000000e0: e070 fe3b 1055 203d e049 dabb a6fb 12bd
000000f0: 14f5 0ebd 8e74 6e3d 3eab 263d e4bb 993c

layers.4.weight f4 [2, 64]
0.087967515 0.12332754 -0.021247849 -0.042453527 0.078736514 0.090201035 0.116541594 -0.095781386
0.0050302744 -0.020758152 -0.028520018 0.07482916 0.009656176 -0.06933984 -0.06083578 -0.096189335
-0.05099386 -0.011377856 -0.092968926 0.11616573 0.013719633 -0.037678152 0.0354584 -0.084823176
0.09972301 0.08405951 -0.0011039823 -0.014994696 -0.055380076 -0.011079416 -0.005932212 0.059850857
-0.041701347 -0.11929385 -0.051176548 0.01788725 -0.08175102 -0.038039356 0.12392813 0.047588408
-0.07030141 0.094120964 -0.045893595 0.085813746 -0.05006276 0.04428768 0.013057753 -0.105479985
-0.11856313 -0.0185197 -0.055073112 0.10114811 0.008052856 0.06657979 -0.10845739 -0.058867842
0.06278196 -0.0061511397 0.115548134 0.05754356 0.010054976 0.08763035 -0.03592038 0.031913683
0.091374874 0.09280895 -0.066842854 0.11413863 0.02887687 -0.03483188 -0.060312226 0.1232664
-0.00395827 0.029347315 0.096144766 -0.104348436 -0.07131474 -0.11389314 0.061756253 0.021638542
0.12197748 -0.056552425 -0.013415918 -0.11108799 -0.01240328 -0.021883428 -0.070705965 0.019132867
0.10511203 -0.052011803 -0.050440192 0.056289896 -0.084506765 -0.08955674 0.022606969 0.0076322854
0.09969324 0.041432187 -0.08902338 0.11707048 -0.030298084 0.09244795 -0.05626829 0.094111994
0.0054727346 -0.042682275 -0.07182142 -0.07723302 0.07391223 0.03976865 0.046471626 -0.0013282746
-0.012494072 -0.10588665 0.07973941 0.12030536 0.11354186 -0.1055274 -0.014676034 0.122510344
-0.064642265 -0.11431715 -0.11126107 0.005382523 0.0018326342 -0.056975394 -0.119883016 0.082062185
00000000: 5028 b43d 2693 fc3d f80f aebc c0e3 2dbd
00000010: 9c40 a13d 52bb b83d 5cad ee3d 0829 c4bd
00000020: 00d5 a43b 000d aabc d0a2 e9bc 0840 993d
00000030: f034 1e3c 0c02 8ebd f02e 79bd eafe c4bd
00000040: f0de 50bd 306a 3abc 7e66 bebd 4ce8 ed3d
00000050: 50c8 603c 6854 1abd d43c 113d c6b7 adbd
00000060: 943b cc3d 6427 ac3d 80b3 90ba 50ac 75bc
00000070: 38d6 62bd 7086 35bc 0063 c2bb 2c26 753d
00000080: 08cf 2abd 5650 f4bd 809e 51bd 4888 923c
00000090: 146d a7bd 28cf 1bbd 08ce fd3d 10ec 423d
000000a0: 30fa 8fbd 7ec2 c03d ecfa 3bbd 1ebf af3d
000000b0: 9c0e 4dbd 0067 353d 30f0 553c e405 d8bd
000000c0: 3ad1 f2bd a0b6 97bc 5894 61bd be26 cf3d
000000d0: 20f0 033c fc5a 883d e81e debd 681f 71bd
000000e0: d493 803d 808f c9bb 80a4 ec3d ccb2 6b3d
000000f0: a0bd 243c 8a77 b33d 4021 13bd ecb7 023d
00000100: c022 bb3d 9e12 be3d e8e4 88bd 84c1 e93d
00000110: 308f ec3c e0ab 0ebd f409 77bd 1873 fc3d
00000120: 60b4 81bb c869 f03c 8ce7 c43d a2b4 d5bd
00000130: 760d 92bd ce40 e9bd 20f4 7c3d 5043 b13c
00000140: 54cf f93d 84a3 67bd 70ce 5bbc 1a82 e3bd
00000150: 2037 4bbc e044 b3bc 4ace 90bd 88bc 9c3c
00000160: fa44 d73d 540a 55bd 609a 4ebd 3c90 663d
00000170: e211 adbd 8669 b7bd 4032 b93c 4018 fa3b
00000180: f82b cc3d ccb4 293d e451 b6bd a6c2 ef3d
00000190: b033 f8bc 5a55 bd3d 9479 66bd cabd c03d
000001a0: a054 b33b 9cd3 2ebd 1c17 93bd 582c 9ebd
000001b0: 4c5f 973d 74e4 223d 0859 3e3d 8019 aeba
000001c0: f0b3 4cbc 1adb d8bd 6a4e a33d a862 f63d
000001d0: a288 e83d c01e d8bd c073 70bc b4e6 fa3d
000001e0: 2a63 84bd 1c1f eabd d8dc e3bd e05f b03b
000001f0: 0035 f03a 085f 69bd 3a85 f5bd 3810 a83d

layers.4.bias f4 [2]
0.031875134 0.08498511
00000000: 808f 023d ac0c ae3d

lstm.weight_ih_l0 f4 [256, 6]
0.09877939 -0.013307971 -0.0028354076 0.0040821307 0.006634955 0.07270676 0.0016869768 -0.00086083636
-0.00038270568 -8.132877e-05 -0.00010061931 0.00073000405 -0.046690963 0.0045276443 0.040337868 -0.00012375927
-0.007527366 -0.035957694 0.016296307 -0.010439911 0.0015074685 -0.0014721899 0.00080883194 -0.001754174
0.030155346 0.10464005 0.0075521865 0.003646183 0.0002096477 -0.0019784318 0.00062393077 -5.9259324e-05
7.764459e-05 -3.5140194e-05 1.3332569e-05 -6.5555096e-06 0.0070980666 0.0013652463 0.0002386326 -0.001118761
0.0013846417 0.00060249114 -0.019231204 -0.007544691 0.0012638851 0.005252555 -0.012295398 -0.012247376
0.15394124 0.0067385505 0.007809435 -0.004206153 -0.0069978894 0.027421862 0.0019466929 -0.00016571212
-0.0002600982 5.910032e-05 -8.825377e-05 0.00023000066 0.020227969 0.002420313 0.0017640032 0.002442199
-0.00024085109 0.011613059 0.00031468863 -4.995891e-05 -7.2143503e-06 1.7790748e-07 2.3081698e-06 0.0001963132
0.0100878775 -0.006678813 -0.002599189 0.00022440302 -0.0001940517 0.0033938293 0.015916752 0.016628154
0.025156828 0.034120727 -0.019836605 -0.010480131 -0.11044659 -0.009938808 -0.030900916 -0.019004447
-0.041992277 -0.03351687 0.005103047 -0.003942923 -0.0010935328 -0.00025744666 -0.00019584427 0.0025923543
0.010386 3.768332e-05 -0.0017258434 0.00021045461 4.326872e-05 0.0016938444 0.022791114 -0.0010518462
0.010988146 -0.0006113191 -0.005770296 0.018212179 -0.0073735774 0.0032188045 0.007404657 0.0030972485
0.002045066 -0.0029015527 -0.1304418 0.044027902 0.013094226 -0.0021696892 -0.0019665358 -0.009086536
-0.1384092 0.04152943 0.05019386 -0.00382714 -0.009679525 0.012446035 0.0007704061 -0.0005518797
1.4324748e-05 -2.8042125e-05 -9.917969e-06 0.00037981954 0.0014617179 0.0054957033 5.455356e-05 -0.0018328973
5.6280136e-05 0.007058312 -0.06558388 -0.05492742 -0.025911016 -0.01319783 -0.00678608 -0.03181358
0.023965918 0.0065493793 0.008765856 0.0031489828 -0.00092198816 -0.0023961891 0.0025539247 -0.0021327173
-0.0009507787 -0.00021132854 -2.0156234e-05 0.00084975775 0.0010253784 -0.0002795318 -0.00010072769 -1.543233e-05
4.438638e-06 0.00018886937 0.0025522104 -0.001193011 -0.0005992087 -7.635571e-05 -8.562254e-05 0.0007503398
0.005656279 -0.0043832595 -0.001363198 2.018516e-06 -0.0001813854 0.0027425895 0.00017452131 -0.00082872383
-0.0014526964 0.00075457926 -0.00065925164 0.0025478115 -0.101921745 0.020671992 0.051772047 0.01621909
0.009494978 0.031146431 0.042984724 -0.014655387 0.023069227 0.026298346 0.0007945736 0.10096316
0.010296402 0.0011862095 0.0016652591 -0.00065945246 0.0016819064 0.0023177948 -0.12294933 0.01596398
0.00839848 0.034341723 0.04662195 0.015383318 0.02015508 0.0016102875 -0.0008517289 -7.197211e-06
0.0004926194 0.0062830173 0.012214343 -0.0081133 -0.003408537 -0.00017050501 -0.00023564676 0.0017589945
0.0018835879 -0.0018150819 -0.0004279612 2.911471e-05 -0.00011414011 0.00083913543 0.0093279565 -0.0108835
-0.0026723377 -7.441009e-05 -0.0007093124 0.0053278445 0.014681173 -0.011676567 -0.0028215274 0.00029555964
-0.0006900869 0.004252808 0.0001320151 -0.0059379004 0.0038737243 -0.00022063585 -0.00024966354 0.004502787
0.0009427799 -0.00024319025 4.002054e-06 -8.645167e-05 2.9755749e-05 0.00022290774 0.06557347 0.034475163
0.04714381 -0.03213557 -0.067268394 -0.015848871 -0.111194566 -0.003739775 -0.008903997 0.0059330165
00000000: d94c ca3d ad09 5abc 3fd2 39bb 65c3 853b
00000010: 096a d93b 48e7 943d 8c1d dd3a c0a9 61ba
00000020: e3a5 c8b9 0d8f aab8 9503 d3b8 be5d 3f3a
00000030: 063f 3fbd a25c 943b 5239 253d 60c5 01b9
00000040: 1fa8 f6bb 6048 13bd d57f 853c 290c 2bbc
00000050: 4096 c53a 7ff6 c0ba cb07 543a 50ec e5ba
00000060: 5808 f73c 864d d63d 5578 f73b cdf4 6e3b
00000070: e0d4 5b39 94a8 01bb 498f 233a 378d 78b8
00000080: 1fd5 a238 7f63 13b8 f3ae 5f37 66f7 dbb6
00000090: e696 e83b 10f2 b23a 7339 7a39 64a3 92ba
000000a0: de7c b53a 7ff0 1d3a c28a 9dbc 7539 f7bb
000000b0: f2a8 a53a a01d ac3b a372 49bc 38a9 48bc
000000c0: c6a2 1d3e 0fcf dc3b 4ae6 ff3b c5d3 89bb
000000d0: 8d4e e5bb d0a3 e03c 2d28 ff3a 02c3 2db9
000000e0: ca5d 88b9 7ce2 7738 e214 b9b8 552c 7139
000000f0: 20b5 a53c 1d9e 1e3b 2036 e73a 4d0d 203b
00000100: f98c 7cb9 b344 3e3c cbfc a439 f98a 51b8
00000110: cc12 f2b6 d606 3f34 0ee6 1a36 6cd9 4d39
00000120: a047 253c f2d9 dabb 2857 2abb ba4d 6b39
00000130: 5b7a 4bb9 026b 5e3b d963 823c c437 883c
00000140: b115 ce3c 2dc2 0b3d 6080 a2bc dbb4 2bbc
00000150: d231 e2bd 62d6 22bc eb23 fdbc 37af 9bbc
00000160: 1800 2cbd fc48 09bd 7637 a73b a333 81bb
00000170: df54 8fba e8f9 86b9 8c5b 4db9 7de4 293b
00000180: 0b2a 2a3c 280e 1e38 b235 e2ba 7bad 5c39
00000190: 6f7b 3538 fd03 de3a 6eb4 ba3c 1ade 89ba
000001a0: a007 343c ee40 20ba c014 bdbb b531 953c
000001b0: 0d9e f1bb 94f2 523b c4a2 f23b 35fb 4a3b
000001c0: 8406 063b fa27 3ebb 8992 05be 9a56 343d
000001d0: 2a89 563c 5831 0ebb ffe0 00bb b2df 14bc
000001e0: 24bb 0dbe c31a 2a3d 1498 4d3d c1d0 7abb
000001f0: df96 1ebc 74ea 4b3c 14f5 493a 05ac 10ba
00000200: 5354 7037 013c ebb7 5a65 26b7 8422 c739
00000210: 1d97 bf3a 4d15 b43b 70d0 6438 d43d f0ba
00000220: 560e 6c38 6a49 e73b d750 86bd 93fb 60bd
00000230: 5743 d4bc b63b 58bc c45d debb f54e 02bd
00000240: 2c54 c43c 2d9c d63b aa9e 0f3c 2a5f 4e3b
00000250: 94b1 71ba 6209 1dbb bf5f 273b 0fc5 0bbb
00000260: ae3d 79ba 1398 5db9 2f15 a9b7 47c2 5e3a
00000270: fd65 863a 208e 92b9 c43d d3b8 ad74 81b7
00000280: 9cef 9436 3c0b 4639 fc42 273b ce5e 9cba
00000290: 3714 1dba 2921 a0b8 4090 b3b8 74b2 443a
000002a0: 4f58 b93b 72a1 8fbb 56ad b2ba d775 0736
000002b0: 4632 3eb9 04bd 333b b5ff 3639 b73e 59ba
000002c0: 6768 beba f5ce 453a a1d1 2cba 2ff9 263b
000002d0: 59bc d0bd 4f58 a93c ed0e 543d e6dd 843c
000002e0: d390 1b3c cd26 ff3c c010 303d 261d 70bc
000002f0: adfb bc3c a16f d73c ef4a 503a c6c5 ce3d
00000300: 3db2 283c 967a 9b3a d344 da3a 1bdf 2cba
00000310: 6a73 dc3a 25e6 173b dccc fbbd e5c6 823c
00000320: c799 093c e8a9 0c3d a8f6 3e3d 500a 7c3c
00000330: 441c a53c 4810 d33a 8f46 5fba 927f f1b6
00000340: 2123 013a c5e1 cd3b ab1e 483c a6ed 04bc
00000350: c361 5fbb 97c9 32b9 f217 77b9 108e e63a
00000360: b9e2 f63a 0be8 edba fb5f e0b9 5d3b f437
00000370: 815e efb8 6df9 5b3a 49d4 183c b550 32bc
00000380: 6322 2fbb 9d0c 9cb8 26f1 39ba 3395 ae3b
00000390: 4d89 703c 124f 3fbc 60e9 38bb 58f5 9a39
000003a0: f3e6 34ba 245b 8b3b 896d 0a39 b892 c2bb
000003b0: 4fde 7d3b 7c5a 67b9 46e5 82b9 1d8c 933b
000003c0: e324 773a e300 7fb9 6249 8636 634d b5b8
000003d0: fc9b f937 57bc 6939 624b 863d d435 0d3d
000003e0: de19 413d 96a0 03bd 03c4 89bd 7ed5 81bc
000003f0: fab9 e3bd 0317 75bb 12e2 11bc c069 c23b

lstm.weight_hh_l0 f4 [256, 64]
0.017288446 0.0009098626 0.0054291026 0.0032433502 -0.009321005 0.0015785167 0.0070870672 0.004182113
0.0058148117 0.0013131027 0.008831637 0.0011597547 0.0031161492 0.00080235733 -0.0316833 -0.0013002243
-0.0013974161 -0.0084541375 0.009861896 -0.02017082 0.016232582 -0.00079135556 -0.0009204602 -0.0114458725
0.00051429286 -0.00013887855 0.0007103555 -0.0001807171 0.0016299528 -0.0077288183 0.015095061 -0.017799297
0.008898608 0.013984065 0.0066708666 0.0029115125 -0.0005740135 0.0035564692 0.0042126696 -0.0018236948
-0.000985898 -0.032914307 -0.008408126 0.00068651646 0.007525333 -0.005657443 0.016203508 0.0014297693
-0.0019605053 0.0051978333 0.001302817 -0.008775566 -0.017314117 -0.00070549484 0.00026826267 0.010173467
0.00085305865 0.0015564495 -0.022880804 -0.0035941938 0.031081373 -0.011765599 -0.040903885 0.00058258284
0.0011880856 7.752293e-05 -0.00095882814 -0.00010407343 -9.2116796e-05 1.0470196e-05 -6.6801644e-05 0.00076915044
0.0006889392 -3.8652008e-05 -7.97999e-06 -1.2266215e-06 0.000184933 -0.0005974633 -0.0010571623 -0.00016493486
4.9756654e-05 -0.0007448652 -0.000325218 -0.0003609744 0.00036980156 -3.0177163e-05 0.00011237992 -0.00031459698
3.0140893e-05 -0.00013962212 -5.917011e-05 9.1241556e-05 0.00011926687 -0.00014095161 0.0012565093 -0.00078011357
-6.747969e-05 0.0007726378 -6.6096414e-05 0.00024282103 -0.000100152465 0.00029173383 0.0003376881 0.00018425999
4.2639887e-05 2.1931233e-05 -0.0007093564 4.4683504e-05 -0.00119468 0.0002389401 0.00130419 0.00028159388
-1.06239195e-05 0.00085675536 -0.0007865374 0.00028016735 -0.00029070652 -0.00017281015 -2.0179514e-06 -0.00041729855
2.8994056e-05 -3.0384921e-05 -0.0013884753 -0.00012607146 5.4874276e-05 -9.3576935e-05 -0.00014987226 4.753152e-05
-0.019076426 0.002749853 0.031403195 0.0020061887 0.0043636165 0.0018851281 0.0004980949 0.014031094
-0.012431482 0.00015253545 -0.0017112052 0.0016039303 0.008700023 0.0113568315 -0.01700995 -0.0058699227
-0.0027170156 0.016120614 0.007602833 0.014301531 0.01909586 -0.0020500198 -0.0024238678 0.006300654
0.00040287376 -0.0036547421 -0.00049998 0.002256376 0.006115892 -7.409093e-06 -0.00051486766 0.03137859
0.00026703242 -0.0031574084 -0.0018820253 0.009174454 -0.0036894847 0.010419465 0.011589925 -0.006350842
-0.00050818204 -0.031012775 0.011328389 0.0028512124 0.028493483 0.0071900077 -0.016554026 -0.006024559
-7.7898985e-05 -0.032592215 0.029010389 0.0048505203 0.013772941 -0.0052524153 0.0001562629 0.020862663
-0.00020864385 0.0013558188 0.01632904 0.009343956 0.026095781 0.007554416 -0.0023693675 0.0022178162
-0.0007816124 0.00018208518 0.0012619895 0.0011447687 -0.0010763218 -0.00015746757 0.00074351754 -0.0005487653
0.0004076807 -0.00017828216 0.0009368369 0.00030011198 0.0012051943 0.0045345654 -0.0027381328 -0.0009027444
-0.00015833824 0.00012195211 0.0012533851 0.0012415928 -0.0019328422 -0.00037373372 0.00026051875 0.0005551177
0.00010328531 -0.000657356 -0.00017463595 0.00049511384 0.0011829278 5.6625686e-05 0.00067798904 -0.00068869937
0.0009754003 -0.0013006384 0.0008377349 0.00063871616 -0.00080004823 0.0016263088 0.0024110726 -0.0009340444
3.3767774e-06 -0.0015207374 -0.00043916987 0.00017938255 -0.00058673613 0.00017199024 0.0023037267 -0.000926487
0.0007172377 -0.0026343586 0.0007375555 0.0008354359 -0.001068494 -0.0010005538 -3.7777485e-05 0.0013503557
0.00018127993 0.00040916287 -1.4032753e-05 7.2789764e-05 0.002125841 1.8367524e-05 -0.004171669 0.00036844265
00000000: 80a0 8d3c d883 6e3a 9de6 b13b 638e 543b
00000010: 21b7 18bc 3be6 ce3a a13a e83b 1b0a 893b
00000020: 2d8a be3b 6a1c ac3a 92b2 103c e902 983a
00000030: 4f38 4c3b 4a55 523a 59c6 01bd 4a6c aaba
00000040: 8129 b7ba 3983 0abc ca93 213c 473d a5bc
00000050: 31fa 843c f972 4fba 0a4b 71ba 7887 3bbc
00000060: 9cd1 063a ed9f 11b9 2737 3a3a e17e 3db9
00000070: 24a4 d53a 0742 fdbb 4651 773c d5cf 91bc
00000080: 78cb 113c 6b1d 653c 4997 da3b 13cf 3e3b
00000090: 6579 16ba a713 693b 6f0a 8a3b 0b09 efba
000000a0: 3f39 81ba 27d1 06bd 3dc2 09bc 57f7 333a
000000b0: 1297 f63b 1262 b9bb 38bd 843c 1967 bb3a
000000c0: d27b 00bb 9652 aa3b 49c3 aa3a 64c7 0fbc
000000d0: 56d6 8dbc f5f0 38ba 9ba5 8c39 9dae 263c
000000e0: cc9f 5f3a c701 cc3a 8670 bbbc 918c 6bbb
000000f0: 5d9e fe3c 80c4 40bc d58a 27bd 79b8 183a
00000100: 8ab9 9b3a ce93 a238 de59 7bba ff41 dab8
00000110: d42e c1b8 26a9 2f37 dc17 8cb8 d0a0 493a
00000120: ed99 343a 471e 22b8 cce1 05b7 65a2 a4b5
00000130: 93ea 4139 159f 1cba 7b90 8aba 5df2 2cb9
00000140: cdb1 5038 0f43 43ba 0582 aab9 2a41 bdb9
00000150: ede1 c139 f724 fdb7 83ad eb38 7ef0 a4b9
00000160: 13d7 fc37 8767 12b9 6c2d 78b8 f058 bf38
00000170: ea1e fa38 69cc 13b9 75b1 a43a 8980 4cba
00000180: e283 8db8 d88a 4a3a 3e9d 8ab8 c69d 7e39
00000190: f208 d2b8 daf3 9839 bb0b b139 ea35 4139
000001a0: 3bd8 3238 f7f8 b737 1af4 39ba 8c6a 3b38
000001b0: cf96 9cba ff8b 7a39 5bf1 aa3a e4a2 9339
000001c0: 633d 32b7 e197 603a a22f 4eba 6de3 9239
000001d0: f869 98b9 5f34 35b9 246c 07b6 ddc8 dab9
000001e0: 4338 f337 1fe3 feb7 80fd b5ba 0d32 04b9
000001f0: ce28 6638 bc3e c4b8 0727 1db9 955c 4738
00000200: 2a46 9cbc e136 343b a3a0 003d 437a 033b
00000210: abfc 8e3b 6716 f73a 9592 023a ace2 653c
00000220: 6aad 4bbc ecf1 1f39 854a e0ba f83a d23a
00000230: 8b8a 0e3c 0112 3a3c 7358 8bbc 7b58 c0bb
00000240: f50f 32bb 610f 843c 3021 f93b f850 6a3c
00000250: ec6e 9c3c a059 06bb c1d9 1ebb b775 ce3b
00000260: cd38 d339 6684 6fbb 1711 03ba b5df 133b
00000270: d267 c83b a09b f8b6 2ff8 06ba d686 003d
00000280: 7c00 8c39 86ec 4ebb 4aae f6ba 7350 163c
00000290: 48cb 71bb 67b6 2a3c abe3 3d3c b91a d0bb
000002a0: 8537 05ba 810e febc b59a 393c 68db 3a3b
000002b0: 2a6b e93c 289a eb3b 4f9c 87bc aa69 c5bb
000002c0: b35d a3b8 6a7f 05bd 32a7 ed3c 1df1 9e3b
000002d0: e7a7 613c 741c acbb 81da 2339 2de8 aa3c
000002e0: 68c7 5ab9 bbb5 b13a 7bc4 853c 6417 193c
000002f0: d2c6 d53c 098b f73b 6447 1bbb c858 113b
00000300: 1fe5 4cba 1eee 3e39 5769 a53a 100c 963a
00000310: 5e13 8dba e11d 25b9 9ee8 423a 04db 0fba
00000320: fabd d539 41f1 3ab9 0f96 753a 5958 9d39
00000330: 9cf7 9d3a b196 943b 3f72 33bb 27a6 6cba
00000340: 9907 26b9 8ac0 ff38 a048 a43a f1bc a23a
00000350: 6c57 fdba b1f1 c3b9 3c96 8839 5185 113a
00000360: e19a d838 6a52 2cba 7b1e 37b9 87ca 013a
00000370: 780c 9b3a 5e81 6d38 13bb 313a d589 34ba
00000380: 02b2 7f3a 2f7a aaba 709b 5b3a 846f 273a
00000390: 54ba 51ba de29 d53a 1603 1e3b a9da 74ba
000003a0: 989c 6236 7b53 c7ba 6240 e6b9 a318 3c39
000003b0: 32cf 19ba 4758 3439 1ffa 163b 7ddf 72ba
000003c0: 0205 3c3a 34a5 2cbb 8358 413a 2701 5b3a
000003d0: b60c 8cba 0425 83ba 4473 1eb8 6bfe b03a
000003e0: f615 3e39 e984 d639 376e 6bb7 b5a6 9838
000003f0: b251 0b3b f513 9a37 7fb2 88bb 892b c139

lstm.bias_ih_l0 f4 [256]
0.04467669 -0.0021078861 0.08436075 0.008805009 0.0020381277 -0.00043060377 0.013576604 0.13706806
0.057810005 -0.0017557738 0.008467494 -0.0004380777 -0.011602698 0.09445608 0.26685044 -0.0074791685
-0.0074984464 0.04061117 0.0524647 0.13233632 0.48776892 -0.00086888677 -0.0071802703 0.05517114
0.03024563 -0.0033387651 -0.00095680275 -0.0029735407 -0.007160868 0.0023225658 0.1209816 0.08942176
0.01681794 0.19236009 0.0075802505 -0.014326869 -0.0027655642 -0.012420704 -0.020136302 0.0040519345
-0.0008445513 0.11839307 0.10653024 -0.001468589 0.1619755 0.15534313 0.061388135 0.0053967205
0.009604812 0.05048299 0.06353868 0.1338816 0.17984445 -0.006029632 -5.3650216e-05 0.2421826
-0.00030921158 -0.0012458904 0.14804386 0.0037845098 0.26077154 0.035857547 0.27266625 -0.0007147771
0.06301189 -0.0020545113 0.14542542 0.005578999 0.041637413 -0.0003929677 0.008214852 0.23441848
0.064751156 -0.0016177637 0.0035882075 -0.00045312065 -0.011271445 0.52349025 0.22406018 -0.0073869457
-0.0076258336 0.034226827 0.026787443 0.10685515 0.04876754 -0.0008588687 -0.010095439 0.054762468
0.009022216 -0.0032859594 -0.00084379787 -0.0028977876 -0.0070874877 -0.0014898212 0.06743561 0.40002128
0.011469502 0.14547926 0.0058450205 -0.013845341 -0.0027142148 -0.012322662 -0.019540232 0.0069978945
-0.0008225438 0.2638452 0.07854629 -0.0015103422 0.13227965 0.09091887 0.12334582 0.010794091
0.005852718 0.36579686 0.44447577 0.14735043 0.22190581 -0.0059901616 -5.1630384e-05 -0.0036019185
-0.00059743447 -0.0012346795 0.048365187 0.003098925 0.104628086 0.01644408 0.19675036 -0.0007026082
-0.00925568 0.000985359 -0.0062136934 0.04412723 -0.04187551 0.0005166963 0.050898112 -0.09183288
-0.026040083 -0.00033565817 0.028326683 0.0008155594 -0.002713437 0.009346183 -0.012938458 -0.0014214799
-0.0074246535 -0.0020735213 0.05922758 -0.047916587 -0.02211019 -0.0005226233 -0.0064755813 -0.045867026
-0.03845635 0.0015238666 0.00033158044 -8.027986e-05 0.00046288685 -0.0468593 -0.06382524 -0.014584453
0.039104644 0.026029233 0.017174765 -0.00484014 -0.00019087172 -0.0003814067 -0.0010982582 -0.01679223
0.0006505333 -0.07267211 0.035638522 -0.002693276 0.034868658 -0.0022704946 0.014887849 -0.03957059
-0.033214733 0.017212389 -0.06975036 -0.03536452 0.0052226745 0.00025286907 -6.759017e-05 0.053925145
0.012278265 0.0005050346 -0.008292677 0.0184988 0.04033495 -0.019593367 -0.056342762 -5.600478e-05
0.041955158 -0.0021055462 0.100467004 0.008929428 0.00051734544 -0.0004311887 0.013751095 0.1838713
0.057410985 -0.0017561876 0.0085404925 -0.00043759652 -0.011587842 0.22804786 0.30116224 -0.0074795047
-0.0074394518 0.041199133 0.052382667 0.14254932 0.5218969 -0.0008686662 -0.0071933856 0.06097208
0.030762788 -0.0033384708 -0.00095737824 -0.0029721677 -0.007160617 0.0023893705 0.108177625 0.24515308
0.017050434 0.20254669 0.007679038 -0.0143133 -0.0027621016 -0.012418657 -0.020152321 0.004037222
-0.0008445299 0.20176524 0.10685293 -0.0014679824 0.16115656 0.15822558 0.06760783 0.0055677053
0.0096074175 0.22456011 0.20863098 0.1331057 0.21523458 -0.0060291914 -5.42422e-05 0.26189804
-0.00030515925 -0.0012460869 0.15380064 0.0037503284 0.26975185 0.036865875 0.30556408 -0.0007139652
00000000: e8fe 363d 7624 0abb 54c5 ac3d e242 103c
00000010: 1c92 053b a9c2 e1b9 6870 5e3c 925b 0c3e
00000020: 2fca 6c3d fe21 e6ba 3ebb 0a3c cbad e5b9
00000030: 3e19 3ebc 3072 c13d 9fa0 883e d013 f5bb
00000040: 87b5 f5bb e657 263d 3ae5 563d 2c83 073e
00000050: d9bc f93e 01c6 63ba 7948 ebbb 22fb 613d
00000060: afc5 f73c 2fcf 5abb f2d1 7aba bcdf 42bb
00000070: b7a5 eabb 3036 183b 33c5 f73d c122 b73d
00000080: c7c5 893c 0bfa 443e c063 f83b 3ebb 6abc
00000090: 783e 35bb 3580 4bbc e3f4 a4bc 17c6 843b
000000a0: e164 5dba 1178 f23d 872c da3d ab7d c0ba
000000b0: e8dc 253e 4512 1f3e 2072 7b3d f9d6 b03b
000000c0: 805d 1d3c 40c7 4e3d 9120 823d 4218 093e
000000d0: 2529 383e 3894 c5bb 7b06 61b8 b7fe 773e
000000e0: ad1d a2b9 254d a3ba cf98 173e 8a05 783b
000000f0: d983 853e 5ddf 123d e99a 8b3e e15f 3bba
00000100: 610c 813d fba4 06bb 67ea 143e 09d0 b63b
00000110: fe8b 2a3d 3b07 ceb9 9697 063c 660b 703e
00000120: 419c 843d 240b d4ba 2228 6b3b d390 edb9
00000130: deab 38bc 7503 063f 0870 653e 310e f2bb
00000140: 21e2 f9bb 6e31 0c3d 5771 db3c dfd6 da3d
00000150: 79c0 473d b425 61ba 5767 25bc 9c4e 603d
00000160: ebd1 133c 4059 57bb 5132 5dba cfe8 3dbb
00000170: 283e e8bb 1b46 c3ba ae1b 8a3d 97cf cc3e
00000180: 94ea 3b3c 84f8 143e 9687 bf3b 92d7 62bc
00000190: f8e0 31bb fee4 49bc d612 a0bc 984e e53b
000001a0: fb9f 57ba b816 873e e1dc a03d adf6 c5ba
000001b0: 5174 073e ac33 ba3d bc9c fc3d b3d9 303c
000001c0: 28c8 bf3b ba49 bb3e 5492 e33e 08e3 163e
000001d0: 473b 633e 1e49 c4bb b48d 58b8 2a0e 6cbb
000001e0: 269d 1cba f8d4 a1ba 931a 463d 5617 4b3b
000001f0: 4047 d63d bcb5 863c ed78 493e 3d2f 38ba
00000200: 23a5 17bc 2927 813a 3d9c cbbb c1be 343d
00000210: a885 2bbd e772 073a 8a7a 503d e112 bcbd
00000220: 0352 d5bc 47fb afb9 5c0d e83c 44cb 553a
00000230: ebd3 31bb bc20 193c d3fb 53bc f350 baba
00000240: 824a f3bb eae3 07bb 9e98 723d 2f44 44bd
00000250: 6e20 b5bc a800 09ba 1d31 d4bb 10df 3bbd
00000260: 6884 1dbd 7abc c73a f9d7 ad39 ec5b a8b8
00000270: 9faf f239 8aef 3fbd cfb6 82bd a1f3 6ebc
00000280: 312c 203d 423b d53c 18b2 8c3c 0a9a 9ebb
00000290: bd24 48b9 8af7 c7b9 6ef3 8fba dc8f 89bc
000002a0: 8d88 2a3a 1dd5 94bd b3f9 113d ac81 30bb
000002b0: 70d2 0e3d 94cc 14bb 2aec 733c c514 22bd
000002c0: 2c0c 08bd ff00 8d3c 47d9 8ebd 63da 10bd
000002d0: f822 ab3b 8393 8439 32bf 8db8 9de0 5c3d
000002e0: c72a 493c 4c64 043a 02de 07bc cc8a 973c
000002f0: 4336 253d 4582 a0bc abc7 66bd ade6 6ab8
00000300: 2cd9 2b3d 34fd 09bb a5c1 cd3d bc4c 123c
00000310: 779e 073a 2b11 e2b9 464c 613c c248 3c3e
00000320: c827 6b3d e12f e6ba 6ced 0b3c 366d e5b9
00000330: efda 3dbc 6185 693e f031 9a3e a216 f5bb
00000340: a5c6 f3bb 6cc0 283d 358f 563d 73f8 113e
00000350: 099b 053f 34b7 63ba 7eb6 ebbb dcbd 793d
00000360: 3e02 fc3c 3fca 5abb 91f8 7aba b3c8 42bb
00000370: 9ca3 eabb fc96 1c3b 3b8c dd3d 6909 7b3e
00000380: 5aad 8b3c 6668 4f3e 71a0 fb3b 5582 6abc
00000390: 6004 35bb 9f77 4bbc 7b16 a5bc ac4a 843b
000003a0: 7163 5dba 8c9b 4e3e b5d5 da3d 5169 c0ba
000003b0: 3a06 253e e305 223e f975 8a3d 4c71 b63b
000003c0: 6e68 1d3c 16f3 653e 5ca3 553e dc4c 083e
000003d0: 7466 5c3e 8690 c5bb 1e82 63b8 8017 863e
000003e0: c8fd 9fb9 bd53 a3ba ea7d 1d3e 12c8 753b
000003f0: ea1c 8a3e ac00 173d e572 9c3e 6529 3bba

lstm.bias_hh_l0 f4 [256]
0.045463126 -0.002107884 0.085520655 0.008805009 0.0021504518 -0.00043060372 0.013576604 0.13756076
0.057809997 -0.0017557739 0.008467494 -0.0004380777 -0.011602703 0.09456807 0.25664976 -0.0074791685
-0.007498432 0.04061117 0.052464675 0.13233632 0.48776913 -0.0008688866 -0.0071802703 0.05517114
0.0302493 -0.0033387651 -0.0009568024 -0.0029735405 -0.0071608676 0.0023225658 0.12064363 0.07492906
0.016817937 0.19236009 0.0075802505 -0.014326819 -0.002765564 -0.012420701 -0.020136302 0.0040519345
-0.0008445512 0.118056245 0.10653024 -0.001468589 0.1619755 0.15534313 0.061388165 0.0053967205
0.009604812 0.05538283 0.06239342 0.1338816 0.17984445 -0.006029632 -5.3650216e-05 0.2421826
-0.0003092025 -0.0012458904 0.14804225 0.0037845098 0.26077154 0.035857547 0.27266675 -0.0007147771
0.06673189 -0.0020545123 0.14468777 0.005579003 0.042073425 -0.00039296784 0.008214853 0.2348147
0.0647512 -0.0016177637 0.0035882075 -0.00045312065 -0.011271466 0.5226112 0.20338407 -0.0073869457
-0.007625713 0.034226827 0.026787417 0.10685515 0.048770957 -0.0008588687 -0.010095439 0.054762468
0.009034314 -0.0032859594 -0.00084379833 -0.0028977874 -0.007087489 -0.0014898212 0.067976765 0.37254584
0.011469502 0.14547926 0.0058450205 -0.013845443 -0.0027142146 -0.012322662 -0.019540232 0.0069978945
-0.0008225438 0.26371208 0.07854629 -0.0015103422 0.13227965 0.09091887 0.12334716 0.010794085
0.005852718 0.3761537 0.4491336 0.14735043 0.22190581 -0.005990162 -5.1630395e-05 -0.0036019185
-0.0005974352 -0.0012346795 0.048367504 0.003098925 0.10462801 0.016444078 0.19676113 -0.000702608
-0.059972353 0.0004351333 0.0670602 -0.023180936 -0.09098225 0.0004413685 0.007807689 -0.0154524995
-0.023320394 -0.00033081815 0.05297506 0.0008089604 -0.0034462295 0.024462247 -0.018135041 -0.0016763231
-0.0066244365 0.0218097 0.017877206 -0.044746477 -0.029236624 -0.0013839346 -0.010137574 -0.042885028
0.04004186 -0.0007243623 9.2110706e-05 -9.786285e-05 -0.00017652295 0.031357236 -0.012649404 0.026004389
0.0343618 -0.014804993 0.040586896 -0.0010973372 -0.00018979721 -0.00042043612 -0.001098642 -0.019080698
0.0005935031 -0.0035232538 0.006916994 -0.0015106046 -0.014639684 -0.057432774 -0.04364723 0.026689677
0.030097418 -0.03548818 0.110635534 -0.02288966 -0.0066198446 0.00025160896 -0.00041040464 -0.03429113
-0.0054089436 0.0008213929 0.03917604 -0.0003558561 0.05903018 -0.008161503 -0.09168939 7.285405e-05
0.04286292 -0.002105546 0.10081773 0.008929428 0.00048358509 -0.00043118882 0.013751095 0.18441686
0.05741095 -0.0017561876 0.0085404925 -0.00043759667 -0.011587849 0.22845668 0.30595863 -0.0074795047
-0.00743943 0.041199133 0.05238267 0.14254932 0.521897 -0.0008686662 -0.0071933856 0.06097208
0.030764654 -0.0033384708 -0.00095737836 -0.0029721677 -0.007160619 0.0023893702 0.108605415 0.23369054
0.017050434 0.20254669 0.007679038 -0.014313369 -0.0027621016 -0.012418659 -0.020152317 0.004037222
-0.0008445299 0.20168087 0.10685293 -0.0014679832 0.16115656 0.15822558 0.06760732 0.0055677127
0.0096074175 0.21849255 0.20494834 0.1331057 0.21523458 -0.0060291914 -5.4242195e-05 0.26189804
-0.00030515317 -0.001246087 0.15380274 0.0037503284 0.26975185 0.036865875 0.30556467 -0.00071396487
00000000: 8b37 3a3d 6d24 0abb 7425 af3d e242 103c
00000010: 98ee 0c3b a7c2 e1b9 6870 5e3c badc 0c3e
00000020: 2dca 6c3d ff21 e6ba 3ebb 0a3c cbad e5b9
00000030: 4319 3ebc e7ac c13d 9967 833e d013 f5bb
00000040: 68b5 f5bb e657 263d 33e5 563d 2c83 073e
00000050: e0bc f93e fec5 63ba 7948 ebbb 22fb 613d
00000060: 61cd f73c 2fcf 5abb ecd1 7aba bbdf 42bb
00000070: b6a5 eabb 3036 183b 0214 f73d 6874 993d
00000080: c5c5 893c 0bfa 443e c063 f83b 09bb 6abc
00000090: 773e 35bb 3280 4bbc e3f4 a4bc 17c6 843b
000000a0: df64 5dba 79c7 f13d 872c da3d ab7d c0ba
000000b0: e8dc 253e 4512 1f3e 2872 7b3d f9d6 b03b
000000c0: 805d 1d3c 1bd9 623d 3e90 7f3d 4218 093e
000000d0: 2529 383e 3894 c5bb 7b06 61b8 b7fe 773e
000000e0: 751c a2b9 254d a3ba 6398 173e 8a05 783b
000000f0: d983 853e 5ddf 123d fa9a 8b3e e15f 3bba
00000100: bbaa 883d ffa4 06bb 0829 143e 12d0 b63b
00000110: 2f55 2c3d 4007 ceb9 9797 063c 4473 703e
00000120: 479c 843d 240b d4ba 2228 6b3b d390 edb9
00000130: f4ab 38bc d9c9 053f ea43 503e 310e f2bb
00000140: 1ee1 f9bb 6e31 0c3d 4971 db3c dfd6 da3d
00000150: 0ec4 473d b425 61ba 5767 25bc 9c4e 603d
00000160: a904 143c 4059 57bb 5932 5dba cee8 3dbb
00000170: 2b3e e8bb 1b46 c3ba 6737 8b3d 54be be3e
00000180: 94ea 3b3c 84f8 143e 9687 bf3b ffd7 62bc
00000190: f7e0 31bb fee4 49bc d612 a0bc 984e e53b
000001a0: fb9f 57ba 4505 873e e1dc a03d adf6 c5ba
000001b0: 5174 073e ac33 ba3d 709d fc3d add9 303c
000001c0: 28c8 bf3b 3897 c03e d7f4 e53e 08e3 163e
000001d0: 473b 633e 1f49 c4bb b78d 58b8 2a0e 6cbb
000001e0: 339d 1cba f8d4 a1ba 011d 463d 5617 4b3b
000001f0: 3647 d63d bbb5 863c c07b 493e 3a2f 38ba
00000200: 92a5 75bd 9a22 e439 dc56 893d f2e5 bdbc
00000210: e754 babd 7a67 e739 a4d7 ff3b 7b2c 7dbc
00000220: 690a bfbc a971 adb9 60fc 583d 6a10 543a
00000230: 23da 61bb 0d65 c83c f08f 94bc 12b8 dbba
00000240: cd11 d9bb 42aa b23c 3873 923c 1548 37bd
00000250: a581 efbc 2465 b5ba 1118 26bc 36a8 2fbd
00000260: ef02 243d 22e3 3dba 8f2b c138 b83b cdb8
00000270: 0519 39b9 7270 003d 723f 4fbc 2807 d53c
00000280: f5be 0c3d a490 72bc 723e 263d 87d4 8fba
00000290: 4d04 47b9 fb6d dcb9 4f00 90ba 204f 9cbc
000002a0: 5295 1b3a 64e6 66bb f4a7 e23b 7bff c5ba
000002b0: 49db 6fbc a13e 6bbd 70c7 32bd 4fa4 da3c
000002c0: dc8e f63c 0e5c 11bd e294 e23d 1983 bbbc
000002d0: 48eb d8bb 62ea 8339 942b d7b9 db74 0cbd
000002e0: 823d b1bb bf52 573a 0e77 203d 3292 bab9
000002f0: a1c9 713d d3b7 05bc a6c7 bbbd 38c9 9838
00000300: 0791 2f3d 33fd 09bb 8779 ce3d bc4c 123c
00000310: b189 fd39 2f11 e2b9 464c 613c c6d7 3c3e
00000320: bf27 6b3d e12f e6ba 6ced 0b3c 3b6d e5b9
00000330: f6da 3dbc 8cf0 693e 9ca6 9c3e a216 f5bb
00000340: 76c6 f3bb 6cc0 283d 368f 563d 73f8 113e
00000350: 0b9b 053f 34b7 63ba 7eb6 ebbb dcbd 793d
00000360: 2806 fc3c 3fca 5abb 93f8 7aba b3c8 42bb
00000370: a0a3 eabb fb96 1c3b 846c de3d 934c 6f3e
00000380: 5aad 8b3c 6668 4f3e 71a0 fb3b 9f82 6abc
00000390: 6004 35bb a277 4bbc 7916 a5bc ac4a 843b
000003a0: 7163 5dba 6e85 4e3e b5d5 da3d 5869 c0ba
000003b0: 3a06 253e e305 223e b575 8a3d 5c71 b63b
000003c0: 6e68 1d3c 83bc 5f3e fadd 513e dc4c 083e
000003d0: 7466 5c3e 8690 c5bb 1d82 63b8 8017 863e
000003e0: f7fc 9fb9 be53 a3ba 777e 1d3e 12c8 753b
000003f0: ea1c 8a3e ac00 173d f972 9c3e 5f29 3bba
